V0303 09:09:41.798769 12578 torch/_logging/structured.py:22] {"str": ["/home/ec2-user/.local/lib/python3.9/site-packages/torch/_dynamo/convert_frame.py", 0]}
V0303 09:09:41.799403 12578 torch/_logging/structured.py:22] {"str": ["/home/ec2-user/code/RQ-VAE-Recommender/train_decoder.py", 1]}
V0303 09:09:41.799556 12578 torch/_logging/structured.py:22] {"str": ["/home/ec2-user/.local/lib/python3.9/site-packages/gin/config.py", 2]}
V0303 09:09:41.799684 12578 torch/_logging/structured.py:22] {"str": ["/home/ec2-user/.local/lib/python3.9/site-packages/torch/nn/modules/module.py", 3]}
V0303 09:09:41.799858 12578 torch/_logging/structured.py:22] {"str": ["/home/ec2-user/code/RQ-VAE-Recommender/modules/model.py", 4]}
V0303 09:09:41.799998 12578 torch/_dynamo/convert_frame.py:894] {"dynamo_start": {"stack": [{"line": 296, "name": "<module>", "filename": 1}, {"line": 1582, "name": "gin_wrapper", "filename": 2}, {"line": 208, "name": "train", "filename": 1}, {"line": 1736, "name": "_wrapped_call_impl", "filename": 3}, {"line": 1747, "name": "_call_impl", "filename": 3}, {"line": 421, "name": "forward", "filename": 4}]}, "frame_id": 0, "frame_compile_id": 0, "attempt": 0}
V0303 09:09:41.800247 12578 torch/_dynamo/utils.py:953] {"chromium_event": {}, "frame_id": 0, "frame_compile_id": 0, "attempt": 0, "has_payload": "de79010a48f52078d87598f31bc64284"}
	{
	"name": "_compile.compile_inner",
	"ts": 1740992981800143.0,
	"args": null,
	"ph": "B",
	"cat": "dynamo_timed",
	"tid": 0,
	"pid": 0
	}
V0303 09:09:41.800418 12578 torch/_dynamo/utils.py:953] {"chromium_event": {}, "frame_id": 0, "frame_compile_id": 0, "attempt": 0, "has_payload": "1ecf7185c81102d47c998a9d7f05110e"}
	{
	"name": "entire_frame_compile",
	"ts": 1740992981800143.0,
	"args": null,
	"ph": "B",
	"cat": "dynamo_timed",
	"tid": 0,
	"pid": 0
	}
V0303 09:09:41.817889 12578 torch/_subclasses/meta_utils.py:204] {"describe_storage": {"id": 0, "describer_id": 0, "size": 20480}, "frame_id": 0, "frame_compile_id": 0, "attempt": 0}
V0303 09:09:41.818304 12578 torch/_subclasses/meta_utils.py:417] {"describe_tensor": {"id": 1, "ndim": 3, "dtype": "torch.bool", "device": "device(type='cuda', index=0)", "size": [256, 20, 4], "is_leaf": true, "stride": [80, 4, 1], "storage": 0, "view_func": "<built-in method _view_func_unsafe of Tensor object at 0x7fba18a41180>", "describer_id": 0}, "frame_id": 0, "frame_compile_id": 0, "attempt": 0}
V0303 09:09:41.818530 12578 torch/_subclasses/meta_utils.py:417] {"describe_tensor": {"id": 0, "ndim": 2, "dtype": "torch.bool", "device": "device(type='cuda', index=0)", "size": [256, 80], "is_leaf": true, "is_view": true, "stride": [80, 1], "storage": 0, "base": 1, "creation_meta": "CreationMeta.NO_GRAD_MODE", "view_func": "<built-in method _view_func_unsafe of Tensor object at 0x7fb9fc4b4090>", "describer_id": 0}, "frame_id": 0, "frame_compile_id": 0, "attempt": 0}
V0303 09:09:41.818683 12578 torch/_subclasses/meta_utils.py:1640] {"describe_source": {"describer_id": 0, "id": 0, "source": "L['batch'][3]"}, "frame_id": 0, "frame_compile_id": 0, "attempt": 0}
V0303 09:09:41.825239 12578 torch/_subclasses/meta_utils.py:204] {"describe_storage": {"id": 1, "describer_id": 0, "size": 2048}, "frame_id": 0, "frame_compile_id": 0, "attempt": 0}
V0303 09:09:41.825514 12578 torch/_subclasses/meta_utils.py:417] {"describe_tensor": {"id": 3, "ndim": 2, "dtype": "torch.int64", "device": "device(type='cuda', index=0)", "size": [256, 1], "is_leaf": true, "stride": [1, 1], "storage": 1, "view_func": "<built-in method _view_func_unsafe of Tensor object at 0x7fba01ad5d60>", "describer_id": 0}, "frame_id": 0, "frame_compile_id": 0, "attempt": 0}
V0303 09:09:41.825667 12578 torch/_subclasses/meta_utils.py:1640] {"describe_source": {"describer_id": 0, "id": 3, "source": "L['batch'][0]"}, "frame_id": 0, "frame_compile_id": 0, "attempt": 0}
V0303 09:09:41.829267 12578 torch/_subclasses/meta_utils.py:204] {"describe_storage": {"id": 2, "describer_id": 0, "size": 1024000}, "frame_id": 0, "frame_compile_id": 0, "attempt": 0}
V0303 09:09:41.829533 12578 torch/_subclasses/meta_utils.py:417] {"describe_tensor": {"id": 5, "ndim": 2, "dtype": "torch.float32", "device": "device(type='cuda', index=0)", "size": [2000, 128], "is_leaf": true, "requires_grad": true, "is_parameter": true, "stride": [128, 1], "storage": 2, "view_func": "<built-in method _view_func_unsafe of Parameter object at 0x7fba18b0aa40>", "describer_id": 0}, "frame_id": 0, "frame_compile_id": 0, "attempt": 0}
V0303 09:09:41.829706 12578 torch/_subclasses/meta_utils.py:1640] {"describe_source": {"describer_id": 0, "id": 5, "source": "L['self']._modules['user_id_embedder']._modules['emb']._parameters['weight']"}, "frame_id": 0, "frame_compile_id": 0, "attempt": 0}
V0303 09:09:41.834391 12578 torch/_subclasses/meta_utils.py:204] {"describe_storage": {"id": 3, "describer_id": 0, "size": 163840}, "frame_id": 0, "frame_compile_id": 0, "attempt": 0}
V0303 09:09:41.834656 12578 torch/_subclasses/meta_utils.py:417] {"describe_tensor": {"id": 6, "ndim": 2, "dtype": "torch.int64", "device": "device(type='cuda', index=0)", "size": [256, 80], "is_leaf": true, "stride": [80, 1], "storage": 3, "view_func": "<built-in method _view_func_unsafe of Tensor object at 0x7fb9fc4b4180>", "describer_id": 0}, "frame_id": 0, "frame_compile_id": 0, "attempt": 0}
V0303 09:09:41.834856 12578 torch/_subclasses/meta_utils.py:1640] {"describe_source": {"describer_id": 0, "id": 6, "source": "L['batch'][4]"}, "frame_id": 0, "frame_compile_id": 0, "attempt": 0}
V0303 09:09:41.836678 12578 torch/_subclasses/meta_utils.py:204] {"describe_storage": {"id": 4, "describer_id": 0, "size": 163840}, "frame_id": 0, "frame_compile_id": 0, "attempt": 0}
V0303 09:09:41.836975 12578 torch/_subclasses/meta_utils.py:417] {"describe_tensor": {"id": 9, "ndim": 2, "dtype": "torch.int64", "device": "device(type='cuda', index=0)", "size": [5120, 4], "is_leaf": true, "stride": [4, 1], "storage": 4, "view_func": "<built-in method _view_func_unsafe of Tensor object at 0x7fba01ad5db0>", "describer_id": 0}, "frame_id": 0, "frame_compile_id": 0, "attempt": 0}
V0303 09:09:41.837186 12578 torch/_subclasses/meta_utils.py:417] {"describe_tensor": {"id": 8, "ndim": 2, "dtype": "torch.int64", "device": "device(type='cuda', index=0)", "size": [256, 80], "is_leaf": true, "is_view": true, "stride": [80, 1], "storage": 4, "base": 9, "creation_meta": "CreationMeta.NO_GRAD_MODE", "view_func": "<built-in method _view_func_unsafe of Tensor object at 0x7fb9fc4b4040>", "describer_id": 0}, "frame_id": 0, "frame_compile_id": 0, "attempt": 0}
V0303 09:09:41.837331 12578 torch/_subclasses/meta_utils.py:1640] {"describe_source": {"describer_id": 0, "id": 8, "source": "L['batch'][1]"}, "frame_id": 0, "frame_compile_id": 0, "attempt": 0}
V0303 09:09:41.840847 12578 torch/_subclasses/meta_utils.py:204] {"describe_storage": {"id": 5, "describer_id": 0, "size": 8192}, "frame_id": 0, "frame_compile_id": 0, "attempt": 0}
V0303 09:09:41.841141 12578 torch/_subclasses/meta_utils.py:417] {"describe_tensor": {"id": 14, "ndim": 2, "dtype": "torch.int64", "device": "device(type='cuda', index=0)", "size": [256, 4], "is_leaf": true, "stride": [4, 1], "storage": 5, "view_func": "<built-in method _view_func_unsafe of Tensor object at 0x7fb9fc4b40e0>", "describer_id": 0}, "frame_id": 0, "frame_compile_id": 0, "attempt": 0}
V0303 09:09:41.841353 12578 torch/_subclasses/meta_utils.py:417] {"describe_tensor": {"id": 13, "ndim": 2, "dtype": "torch.int64", "device": "device(type='cuda', index=0)", "size": [256, 4], "is_leaf": true, "is_view": true, "stride": [4, 1], "storage": 5, "base": 14, "creation_meta": "CreationMeta.NO_GRAD_MODE", "view_func": "<built-in method _view_func_unsafe of Tensor object at 0x7fb9fc4b4270>", "describer_id": 0}, "frame_id": 0, "frame_compile_id": 0, "attempt": 0}
V0303 09:09:41.841499 12578 torch/_subclasses/meta_utils.py:1640] {"describe_source": {"describer_id": 0, "id": 13, "source": "L['batch'][2]"}, "frame_id": 0, "frame_compile_id": 0, "attempt": 0}
V0303 09:09:41.843029 12578 torch/_subclasses/meta_utils.py:204] {"describe_storage": {"id": 6, "describer_id": 0, "size": 8192}, "frame_id": 0, "frame_compile_id": 0, "attempt": 0}
V0303 09:09:41.843354 12578 torch/_subclasses/meta_utils.py:417] {"describe_tensor": {"id": 16, "ndim": 2, "dtype": "torch.int64", "device": "device(type='cuda', index=0)", "size": [256, 4], "is_leaf": true, "stride": [4, 1], "storage": 6, "view_func": "<built-in method _view_func_unsafe of Tensor object at 0x7fb9fc4b4220>", "describer_id": 0}, "frame_id": 0, "frame_compile_id": 0, "attempt": 0}
V0303 09:09:41.843517 12578 torch/_subclasses/meta_utils.py:1640] {"describe_source": {"describer_id": 0, "id": 16, "source": "L['batch'][5]"}, "frame_id": 0, "frame_compile_id": 0, "attempt": 0}
V0303 09:09:41.847002 12578 torch/_subclasses/meta_utils.py:204] {"describe_storage": {"id": 7, "describer_id": 0, "size": 524800}, "frame_id": 0, "frame_compile_id": 0, "attempt": 0}
V0303 09:09:41.847267 12578 torch/_subclasses/meta_utils.py:417] {"describe_tensor": {"id": 19, "ndim": 2, "dtype": "torch.float32", "device": "device(type='cuda', index=0)", "size": [1025, 128], "is_leaf": true, "requires_grad": true, "is_parameter": true, "stride": [128, 1], "storage": 7, "view_func": "<built-in method _view_func_unsafe of Parameter object at 0x7fba18b0cf90>", "describer_id": 0}, "frame_id": 0, "frame_compile_id": 0, "attempt": 0}
V0303 09:09:41.847424 12578 torch/_subclasses/meta_utils.py:1640] {"describe_source": {"describer_id": 0, "id": 19, "source": "L['self']._modules['sem_id_embedder']._modules['emb']._parameters['weight']"}, "frame_id": 0, "frame_compile_id": 0, "attempt": 0}
V0303 09:09:41.858092 12578 torch/_subclasses/meta_utils.py:204] {"describe_storage": {"id": 8, "describer_id": 0, "size": 40960}, "frame_id": 0, "frame_compile_id": 0, "attempt": 0}
V0303 09:09:41.858364 12578 torch/_subclasses/meta_utils.py:417] {"describe_tensor": {"id": 22, "ndim": 2, "dtype": "torch.float32", "device": "device(type='cuda', index=0)", "size": [80, 128], "is_leaf": true, "requires_grad": true, "is_parameter": true, "stride": [128, 1], "storage": 8, "view_func": "<built-in method _view_func_unsafe of Parameter object at 0x7fba18b0a9f0>", "describer_id": 0}, "frame_id": 0, "frame_compile_id": 0, "attempt": 0}
V0303 09:09:41.858517 12578 torch/_subclasses/meta_utils.py:1640] {"describe_source": {"describer_id": 0, "id": 22, "source": "L['self']._modules['wpe']._parameters['weight']"}, "frame_id": 0, "frame_compile_id": 0, "attempt": 0}
V0303 09:09:41.863614 12578 torch/_subclasses/meta_utils.py:204] {"describe_storage": {"id": 9, "describer_id": 0, "size": 512}, "frame_id": 0, "frame_compile_id": 0, "attempt": 0}
V0303 09:09:41.863875 12578 torch/_subclasses/meta_utils.py:417] {"describe_tensor": {"id": 25, "ndim": 1, "dtype": "torch.float32", "device": "device(type='cuda', index=0)", "size": [128], "is_leaf": true, "requires_grad": true, "is_parameter": true, "stride": [1], "storage": 9, "view_func": "<built-in method _view_func_unsafe of Parameter object at 0x7fba18b0cb80>", "describer_id": 0}, "frame_id": 0, "frame_compile_id": 0, "attempt": 0}
V0303 09:09:41.864035 12578 torch/_subclasses/meta_utils.py:1640] {"describe_source": {"describer_id": 0, "id": 25, "source": "L['self']._parameters['bos_emb']"}, "frame_id": 0, "frame_compile_id": 0, "attempt": 0}
V0303 09:09:41.866648 12578 torch/_subclasses/meta_utils.py:204] {"describe_storage": {"id": 10, "describer_id": 0, "size": 2048}, "frame_id": 0, "frame_compile_id": 0, "attempt": 0}
V0303 09:09:41.866918 12578 torch/_subclasses/meta_utils.py:417] {"describe_tensor": {"id": 27, "ndim": 2, "dtype": "torch.float32", "device": "device(type='cuda', index=0)", "size": [4, 128], "is_leaf": true, "requires_grad": true, "is_parameter": true, "stride": [128, 1], "storage": 10, "view_func": "<built-in method _view_func_unsafe of Parameter object at 0x7fba18b12450>", "describer_id": 0}, "frame_id": 0, "frame_compile_id": 0, "attempt": 0}
V0303 09:09:41.867076 12578 torch/_subclasses/meta_utils.py:1640] {"describe_source": {"describer_id": 0, "id": 27, "source": "L['self']._modules['tte']._parameters['weight']"}, "frame_id": 0, "frame_compile_id": 0, "attempt": 0}
V0303 09:09:41.874265 12578 torch/_subclasses/meta_utils.py:204] {"describe_storage": {"id": 0, "describer_id": 1, "size": 20480}, "frame_id": 0, "frame_compile_id": 0, "attempt": 1}
V0303 09:09:41.874567 12578 torch/_subclasses/meta_utils.py:417] {"describe_tensor": {"id": 1, "ndim": 3, "dtype": "torch.bool", "device": "device(type='cuda', index=0)", "size": [256, 20, 4], "is_leaf": true, "stride": [80, 4, 1], "storage": 0, "view_func": "<built-in method _view_func_unsafe of Tensor object at 0x7fba18a41180>", "describer_id": 1}, "frame_id": 0, "frame_compile_id": 0, "attempt": 1}
V0303 09:09:41.874815 12578 torch/_subclasses/meta_utils.py:417] {"describe_tensor": {"id": 0, "ndim": 2, "dtype": "torch.bool", "device": "device(type='cuda', index=0)", "size": [256, 80], "is_leaf": true, "is_view": true, "stride": [80, 1], "storage": 0, "base": 1, "creation_meta": "CreationMeta.NO_GRAD_MODE", "view_func": "<built-in method _view_func_unsafe of Tensor object at 0x7fb9fc4b4090>", "describer_id": 1}, "frame_id": 0, "frame_compile_id": 0, "attempt": 1}
V0303 09:09:41.874978 12578 torch/_subclasses/meta_utils.py:1640] {"describe_source": {"describer_id": 1, "id": 0, "source": "L['batch'][3]"}, "frame_id": 0, "frame_compile_id": 0, "attempt": 1}
V0303 09:09:41.884028 12578 torch/_dynamo/guards.py:2277] {"dynamo_cpp_guards_str": {}, "frame_id": 0, "frame_compile_id": 0, "attempt": 1, "has_payload": "80315c73d59024b07ddf57e93b05eb5b"}
	
	TREE_GUARD_MANAGER:
	+- RootGuardManager
	| +- DEFAULT_DEVICE: utils_device.CURRENT_DEVICE == None                           # _dynamo/output_graph.py:471 in init_ambient_guards
	| +- GLOBAL_STATE: ___check_global_state()
	| +- TORCH_FUNCTION_MODE_STACK: ___check_torch_function_mode_stack()
	| +- GuardManager: source=L['self'], accessed_by=DictGetItemGuardAccessor(self)
	| | +- TYPE_MATCH: ___check_type_id(L['self'], 94485852253984)                 
	| +- GuardManager: source=L['batch'], accessed_by=DictGetItemGuardAccessor(batch)
	| | +- TYPE_MATCH: ___check_type_id(L['batch'], 94485825490064)                
	| | +- LENGTH_CHECK: len(L['batch']) == 6                                        
	| | +- GuardManager: source=L['batch'][3], accessed_by=TupleGetItemGuardAccessor(3)
	| | | +- TENSOR_MATCH: check_tensor(L['batch'][3], Tensor, DispatchKeySet(CUDA, BackendSelect, ADInplaceOrView, AutogradCUDA), torch.bool, device=0, requires_grad=False, size=[256, 80], stride=[80, 1])
	| | | +- NO_HASATTR: hasattr(L['batch'][3], '_dynamo_dynamic_indices') == False  
	
V0303 09:09:41.884317 12578 torch/_dynamo/utils.py:953] {"chromium_event": {}, "frame_id": 0, "frame_compile_id": 0, "attempt": 1, "has_payload": "d986aa751ab069c5c9c2fa2cd3429340"}
	{
	"name": "entire_frame_compile",
	"ts": 1740992981884267.0,
	"args": {
	"cache_stats": {
	"fxgraph_cache_hit": 0,
	"fxgraph_cache_miss": 0,
	"fxgraph_cache_bypass": 0
	}
	},
	"ph": "E",
	"cat": "dynamo_timed",
	"tid": 0,
	"pid": 0
	}
V0303 09:09:41.884502 12578 torch/_dynamo/utils.py:953] {"chromium_event": {}, "frame_id": 0, "frame_compile_id": 0, "attempt": 1, "has_payload": "7a0478985648caa876e45c7ae113f336"}
	{
	"name": "_compile.compile_inner",
	"ts": 1740992981884463.2,
	"args": {
	"cache_stats": {
	"fxgraph_cache_hit": 0,
	"fxgraph_cache_miss": 0,
	"fxgraph_cache_bypass": 0
	}
	},
	"ph": "E",
	"cat": "dynamo_timed",
	"tid": 0,
	"pid": 0
	}
V0303 09:09:41.884790 12578 torch/_dynamo/utils.py:810] {"compilation_metrics": {"compile_id": "0/0", "frame_key": "1", "co_name": "forward", "co_filename": "/home/ec2-user/code/RQ-VAE-Recommender/modules/model.py", "co_firstlineno": 421, "cache_size": 0, "accumulated_cache_size": 0, "guard_count": 8, "shape_env_guard_count": 0, "graph_op_count": 0, "graph_node_count": 1, "graph_input_count": 1, "start_time": 1740992981.8001313, "entire_frame_compile_time_s": 0.08403801918029785, "backend_compile_time_s": null, "inductor_compile_time_s": null, "code_gen_time_s": null, "fail_type": null, "fail_reason": null, "fail_user_frame_filename": null, "fail_user_frame_lineno": null, "non_compliant_ops": [], "compliant_custom_ops": [], "restart_reasons": ["call torch._dynamo.disable() wrapped function <function padded_to_jagged_tensor at 0x7fba2cb93dc0>"], "dynamo_time_before_restart_s": 0.07224702835083008, "has_guarded_code": true, "possibly_missed_reinplacing_opportunities": 0}, "frame_id": 0, "frame_compile_id": 0, "attempt": 1}
V0303 09:09:41.885252 12578 torch/_logging/structured.py:22] {"str": ["/home/ec2-user/.local/lib/python3.9/site-packages/torch/_dynamo/eval_frame.py", 5]}
V0303 09:09:41.885410 12578 torch/_dynamo/convert_frame.py:894] {"dynamo_start": {"stack": [{"line": 296, "name": "<module>", "filename": 1}, {"line": 1582, "name": "gin_wrapper", "filename": 2}, {"line": 208, "name": "train", "filename": 1}, {"line": 1736, "name": "_wrapped_call_impl", "filename": 3}, {"line": 1747, "name": "_call_impl", "filename": 3}, {"line": 465, "name": "_fn", "filename": 5}, {"line": 288, "name": "_predict", "filename": 4}]}, "frame_id": 1, "frame_compile_id": 0, "attempt": 0}
V0303 09:09:41.885611 12578 torch/_dynamo/utils.py:953] {"chromium_event": {}, "frame_id": 1, "frame_compile_id": 0, "attempt": 0, "has_payload": "b3402fc0f940904125483bdcc0e8e6ae"}
	{
	"name": "_compile.compile_inner",
	"ts": 1740992981885549.0,
	"args": null,
	"ph": "B",
	"cat": "dynamo_timed",
	"tid": 0,
	"pid": 0
	}
V0303 09:09:41.885775 12578 torch/_dynamo/utils.py:953] {"chromium_event": {}, "frame_id": 1, "frame_compile_id": 0, "attempt": 0, "has_payload": "e08ee55ac6d12a53497ddcbb8911fdd6"}
	{
	"name": "entire_frame_compile",
	"ts": 1740992981885549.0,
	"args": null,
	"ph": "B",
	"cat": "dynamo_timed",
	"tid": 0,
	"pid": 0
	}
V0303 09:09:41.889404 12578 torch/_subclasses/meta_utils.py:204] {"describe_storage": {"id": 0, "describer_id": 2, "size": 2048}, "frame_id": 1, "frame_compile_id": 0, "attempt": 0}
V0303 09:09:41.889663 12578 torch/_subclasses/meta_utils.py:417] {"describe_tensor": {"id": 0, "ndim": 2, "dtype": "torch.int64", "device": "device(type='cuda', index=0)", "size": [256, 1], "is_leaf": true, "stride": [1, 1], "storage": 0, "view_func": "<built-in method _view_func_unsafe of Tensor object at 0x7fba01ad5d60>", "describer_id": 2}, "frame_id": 1, "frame_compile_id": 0, "attempt": 0}
V0303 09:09:41.889813 12578 torch/_subclasses/meta_utils.py:1640] {"describe_source": {"describer_id": 2, "id": 0, "source": "L['batch'][0]"}, "frame_id": 1, "frame_compile_id": 0, "attempt": 0}
V0303 09:09:41.892365 12578 torch/_subclasses/meta_utils.py:204] {"describe_storage": {"id": 1, "describer_id": 2, "size": 1024000}, "frame_id": 1, "frame_compile_id": 0, "attempt": 0}
V0303 09:09:41.892629 12578 torch/_subclasses/meta_utils.py:417] {"describe_tensor": {"id": 1, "ndim": 2, "dtype": "torch.float32", "device": "device(type='cuda', index=0)", "size": [2000, 128], "is_leaf": true, "requires_grad": true, "is_parameter": true, "stride": [128, 1], "storage": 1, "view_func": "<built-in method _view_func_unsafe of Parameter object at 0x7fba18b0aa40>", "describer_id": 2}, "frame_id": 1, "frame_compile_id": 0, "attempt": 0}
V0303 09:09:41.892786 12578 torch/_subclasses/meta_utils.py:1640] {"describe_source": {"describer_id": 2, "id": 1, "source": "L['self']._modules['user_id_embedder']._modules['emb']._parameters['weight']"}, "frame_id": 1, "frame_compile_id": 0, "attempt": 0}
V0303 09:09:41.895626 12578 torch/_subclasses/meta_utils.py:204] {"describe_storage": {"id": 2, "describer_id": 2, "size": 163840}, "frame_id": 1, "frame_compile_id": 0, "attempt": 0}
V0303 09:09:41.895886 12578 torch/_subclasses/meta_utils.py:417] {"describe_tensor": {"id": 2, "ndim": 2, "dtype": "torch.int64", "device": "device(type='cuda', index=0)", "size": [256, 80], "is_leaf": true, "stride": [80, 1], "storage": 2, "view_func": "<built-in method _view_func_unsafe of Tensor object at 0x7fb9fc4b4180>", "describer_id": 2}, "frame_id": 1, "frame_compile_id": 0, "attempt": 0}
V0303 09:09:41.896039 12578 torch/_subclasses/meta_utils.py:1640] {"describe_source": {"describer_id": 2, "id": 2, "source": "L['batch'][4]"}, "frame_id": 1, "frame_compile_id": 0, "attempt": 0}
V0303 09:09:41.897212 12578 torch/_subclasses/meta_utils.py:204] {"describe_storage": {"id": 3, "describer_id": 2, "size": 163840}, "frame_id": 1, "frame_compile_id": 0, "attempt": 0}
V0303 09:09:41.897506 12578 torch/_subclasses/meta_utils.py:417] {"describe_tensor": {"id": 4, "ndim": 2, "dtype": "torch.int64", "device": "device(type='cuda', index=0)", "size": [5120, 4], "is_leaf": true, "stride": [4, 1], "storage": 3, "view_func": "<built-in method _view_func_unsafe of Tensor object at 0x7fba01ad5db0>", "describer_id": 2}, "frame_id": 1, "frame_compile_id": 0, "attempt": 0}
V0303 09:09:41.897717 12578 torch/_subclasses/meta_utils.py:417] {"describe_tensor": {"id": 3, "ndim": 2, "dtype": "torch.int64", "device": "device(type='cuda', index=0)", "size": [256, 80], "is_leaf": true, "is_view": true, "stride": [80, 1], "storage": 3, "base": 4, "creation_meta": "CreationMeta.NO_GRAD_MODE", "view_func": "<built-in method _view_func_unsafe of Tensor object at 0x7fb9fc4b4040>", "describer_id": 2}, "frame_id": 1, "frame_compile_id": 0, "attempt": 0}
V0303 09:09:41.897874 12578 torch/_subclasses/meta_utils.py:1640] {"describe_source": {"describer_id": 2, "id": 3, "source": "L['batch'][1]"}, "frame_id": 1, "frame_compile_id": 0, "attempt": 0}
V0303 09:09:41.899471 12578 torch/_subclasses/meta_utils.py:204] {"describe_storage": {"id": 4, "describer_id": 2, "size": 20480}, "frame_id": 1, "frame_compile_id": 0, "attempt": 0}
V0303 09:09:41.899763 12578 torch/_subclasses/meta_utils.py:417] {"describe_tensor": {"id": 6, "ndim": 3, "dtype": "torch.bool", "device": "device(type='cuda', index=0)", "size": [256, 20, 4], "is_leaf": true, "stride": [80, 4, 1], "storage": 4, "view_func": "<built-in method _view_func_unsafe of Tensor object at 0x7fba18a41180>", "describer_id": 2}, "frame_id": 1, "frame_compile_id": 0, "attempt": 0}
V0303 09:09:41.899985 12578 torch/_subclasses/meta_utils.py:417] {"describe_tensor": {"id": 5, "ndim": 2, "dtype": "torch.bool", "device": "device(type='cuda', index=0)", "size": [256, 80], "is_leaf": true, "is_view": true, "stride": [80, 1], "storage": 4, "base": 6, "creation_meta": "CreationMeta.NO_GRAD_MODE", "view_func": "<built-in method _view_func_unsafe of Tensor object at 0x7fb9fc4b4090>", "describer_id": 2}, "frame_id": 1, "frame_compile_id": 0, "attempt": 0}
V0303 09:09:41.900134 12578 torch/_subclasses/meta_utils.py:1640] {"describe_source": {"describer_id": 2, "id": 5, "source": "L['batch'][3]"}, "frame_id": 1, "frame_compile_id": 0, "attempt": 0}
V0303 09:09:41.901919 12578 torch/_subclasses/meta_utils.py:204] {"describe_storage": {"id": 5, "describer_id": 2, "size": 8192}, "frame_id": 1, "frame_compile_id": 0, "attempt": 0}
V0303 09:09:41.902215 12578 torch/_subclasses/meta_utils.py:417] {"describe_tensor": {"id": 8, "ndim": 2, "dtype": "torch.int64", "device": "device(type='cuda', index=0)", "size": [256, 4], "is_leaf": true, "stride": [4, 1], "storage": 5, "view_func": "<built-in method _view_func_unsafe of Tensor object at 0x7fb9fc4b40e0>", "describer_id": 2}, "frame_id": 1, "frame_compile_id": 0, "attempt": 0}
V0303 09:09:41.902425 12578 torch/_subclasses/meta_utils.py:417] {"describe_tensor": {"id": 7, "ndim": 2, "dtype": "torch.int64", "device": "device(type='cuda', index=0)", "size": [256, 4], "is_leaf": true, "is_view": true, "stride": [4, 1], "storage": 5, "base": 8, "creation_meta": "CreationMeta.NO_GRAD_MODE", "view_func": "<built-in method _view_func_unsafe of Tensor object at 0x7fb9fc4b4270>", "describer_id": 2}, "frame_id": 1, "frame_compile_id": 0, "attempt": 0}
V0303 09:09:41.902572 12578 torch/_subclasses/meta_utils.py:1640] {"describe_source": {"describer_id": 2, "id": 7, "source": "L['batch'][2]"}, "frame_id": 1, "frame_compile_id": 0, "attempt": 0}
V0303 09:09:41.903743 12578 torch/_subclasses/meta_utils.py:204] {"describe_storage": {"id": 6, "describer_id": 2, "size": 8192}, "frame_id": 1, "frame_compile_id": 0, "attempt": 0}
V0303 09:09:41.903993 12578 torch/_subclasses/meta_utils.py:417] {"describe_tensor": {"id": 9, "ndim": 2, "dtype": "torch.int64", "device": "device(type='cuda', index=0)", "size": [256, 4], "is_leaf": true, "stride": [4, 1], "storage": 6, "view_func": "<built-in method _view_func_unsafe of Tensor object at 0x7fb9fc4b4220>", "describer_id": 2}, "frame_id": 1, "frame_compile_id": 0, "attempt": 0}
V0303 09:09:41.904146 12578 torch/_subclasses/meta_utils.py:1640] {"describe_source": {"describer_id": 2, "id": 9, "source": "L['batch'][5]"}, "frame_id": 1, "frame_compile_id": 0, "attempt": 0}
V0303 09:09:41.906909 12578 torch/_subclasses/meta_utils.py:204] {"describe_storage": {"id": 7, "describer_id": 2, "size": 524800}, "frame_id": 1, "frame_compile_id": 0, "attempt": 0}
V0303 09:09:41.907184 12578 torch/_subclasses/meta_utils.py:417] {"describe_tensor": {"id": 10, "ndim": 2, "dtype": "torch.float32", "device": "device(type='cuda', index=0)", "size": [1025, 128], "is_leaf": true, "requires_grad": true, "is_parameter": true, "stride": [128, 1], "storage": 7, "view_func": "<built-in method _view_func_unsafe of Parameter object at 0x7fba18b0cf90>", "describer_id": 2}, "frame_id": 1, "frame_compile_id": 0, "attempt": 0}
V0303 09:09:41.907347 12578 torch/_subclasses/meta_utils.py:1640] {"describe_source": {"describer_id": 2, "id": 10, "source": "L['self']._modules['sem_id_embedder']._modules['emb']._parameters['weight']"}, "frame_id": 1, "frame_compile_id": 0, "attempt": 0}
V0303 09:09:41.913861 12578 torch/_subclasses/meta_utils.py:204] {"describe_storage": {"id": 8, "describer_id": 2, "size": 40960}, "frame_id": 1, "frame_compile_id": 0, "attempt": 0}
V0303 09:09:41.914207 12578 torch/_subclasses/meta_utils.py:417] {"describe_tensor": {"id": 11, "ndim": 2, "dtype": "torch.float32", "device": "device(type='cuda', index=0)", "size": [80, 128], "is_leaf": true, "requires_grad": true, "is_parameter": true, "stride": [128, 1], "storage": 8, "view_func": "<built-in method _view_func_unsafe of Parameter object at 0x7fba18b0a9f0>", "describer_id": 2}, "frame_id": 1, "frame_compile_id": 0, "attempt": 0}
V0303 09:09:41.914368 12578 torch/_subclasses/meta_utils.py:1640] {"describe_source": {"describer_id": 2, "id": 11, "source": "L['self']._modules['wpe']._parameters['weight']"}, "frame_id": 1, "frame_compile_id": 0, "attempt": 0}
V0303 09:09:41.917306 12578 torch/_subclasses/meta_utils.py:204] {"describe_storage": {"id": 9, "describer_id": 2, "size": 512}, "frame_id": 1, "frame_compile_id": 0, "attempt": 0}
V0303 09:09:41.917561 12578 torch/_subclasses/meta_utils.py:417] {"describe_tensor": {"id": 12, "ndim": 1, "dtype": "torch.float32", "device": "device(type='cuda', index=0)", "size": [128], "is_leaf": true, "requires_grad": true, "is_parameter": true, "stride": [1], "storage": 9, "view_func": "<built-in method _view_func_unsafe of Parameter object at 0x7fba18b0cb80>", "describer_id": 2}, "frame_id": 1, "frame_compile_id": 0, "attempt": 0}
V0303 09:09:41.917717 12578 torch/_subclasses/meta_utils.py:1640] {"describe_source": {"describer_id": 2, "id": 12, "source": "L['self']._parameters['bos_emb']"}, "frame_id": 1, "frame_compile_id": 0, "attempt": 0}
V0303 09:09:41.919914 12578 torch/_subclasses/meta_utils.py:204] {"describe_storage": {"id": 10, "describer_id": 2, "size": 2048}, "frame_id": 1, "frame_compile_id": 0, "attempt": 0}
V0303 09:09:41.920169 12578 torch/_subclasses/meta_utils.py:417] {"describe_tensor": {"id": 13, "ndim": 2, "dtype": "torch.float32", "device": "device(type='cuda', index=0)", "size": [4, 128], "is_leaf": true, "requires_grad": true, "is_parameter": true, "stride": [128, 1], "storage": 10, "view_func": "<built-in method _view_func_unsafe of Parameter object at 0x7fba18b12450>", "describer_id": 2}, "frame_id": 1, "frame_compile_id": 0, "attempt": 0}
V0303 09:09:41.920320 12578 torch/_subclasses/meta_utils.py:1640] {"describe_source": {"describer_id": 2, "id": 13, "source": "L['self']._modules['tte']._parameters['weight']"}, "frame_id": 1, "frame_compile_id": 0, "attempt": 0}
V0303 09:09:41.927083 12578 torch/_subclasses/meta_utils.py:204] {"describe_storage": {"id": 0, "describer_id": 3, "size": 2048}, "frame_id": 1, "frame_compile_id": 0, "attempt": 1}
V0303 09:09:41.927349 12578 torch/_subclasses/meta_utils.py:417] {"describe_tensor": {"id": 0, "ndim": 2, "dtype": "torch.int64", "device": "device(type='cuda', index=0)", "size": [256, 1], "is_leaf": true, "stride": [1, 1], "storage": 0, "view_func": "<built-in method _view_func_unsafe of Tensor object at 0x7fba01ad5d60>", "describer_id": 3}, "frame_id": 1, "frame_compile_id": 0, "attempt": 1}
V0303 09:09:41.927507 12578 torch/_subclasses/meta_utils.py:1640] {"describe_source": {"describer_id": 3, "id": 0, "source": "L['batch'][0]"}, "frame_id": 1, "frame_compile_id": 0, "attempt": 1}
V0303 09:09:41.930157 12578 torch/_subclasses/meta_utils.py:204] {"describe_storage": {"id": 1, "describer_id": 3, "size": 1024000}, "frame_id": 1, "frame_compile_id": 0, "attempt": 1}
V0303 09:09:41.930412 12578 torch/_subclasses/meta_utils.py:417] {"describe_tensor": {"id": 1, "ndim": 2, "dtype": "torch.float32", "device": "device(type='cuda', index=0)", "size": [2000, 128], "is_leaf": true, "requires_grad": true, "is_parameter": true, "stride": [128, 1], "storage": 1, "view_func": "<built-in method _view_func_unsafe of Parameter object at 0x7fba18b0aa40>", "describer_id": 3}, "frame_id": 1, "frame_compile_id": 0, "attempt": 1}
V0303 09:09:41.930567 12578 torch/_subclasses/meta_utils.py:1640] {"describe_source": {"describer_id": 3, "id": 1, "source": "L['self']._modules['user_id_embedder']._modules['emb']._parameters['weight']"}, "frame_id": 1, "frame_compile_id": 0, "attempt": 1}
V0303 09:09:41.933352 12578 torch/_subclasses/meta_utils.py:204] {"describe_storage": {"id": 2, "describer_id": 3, "size": 163840}, "frame_id": 1, "frame_compile_id": 0, "attempt": 1}
V0303 09:09:41.933602 12578 torch/_subclasses/meta_utils.py:417] {"describe_tensor": {"id": 2, "ndim": 2, "dtype": "torch.int64", "device": "device(type='cuda', index=0)", "size": [256, 80], "is_leaf": true, "stride": [80, 1], "storage": 2, "view_func": "<built-in method _view_func_unsafe of Tensor object at 0x7fb9fc4b4180>", "describer_id": 3}, "frame_id": 1, "frame_compile_id": 0, "attempt": 1}
V0303 09:09:41.933751 12578 torch/_subclasses/meta_utils.py:1640] {"describe_source": {"describer_id": 3, "id": 2, "source": "L['batch'][4]"}, "frame_id": 1, "frame_compile_id": 0, "attempt": 1}
V0303 09:09:41.934951 12578 torch/_subclasses/meta_utils.py:204] {"describe_storage": {"id": 3, "describer_id": 3, "size": 163840}, "frame_id": 1, "frame_compile_id": 0, "attempt": 1}
V0303 09:09:41.935238 12578 torch/_subclasses/meta_utils.py:417] {"describe_tensor": {"id": 4, "ndim": 2, "dtype": "torch.int64", "device": "device(type='cuda', index=0)", "size": [5120, 4], "is_leaf": true, "stride": [4, 1], "storage": 3, "view_func": "<built-in method _view_func_unsafe of Tensor object at 0x7fba01ad5db0>", "describer_id": 3}, "frame_id": 1, "frame_compile_id": 0, "attempt": 1}
V0303 09:09:41.935446 12578 torch/_subclasses/meta_utils.py:417] {"describe_tensor": {"id": 3, "ndim": 2, "dtype": "torch.int64", "device": "device(type='cuda', index=0)", "size": [256, 80], "is_leaf": true, "is_view": true, "stride": [80, 1], "storage": 3, "base": 4, "creation_meta": "CreationMeta.NO_GRAD_MODE", "view_func": "<built-in method _view_func_unsafe of Tensor object at 0x7fb9fc4b4040>", "describer_id": 3}, "frame_id": 1, "frame_compile_id": 0, "attempt": 1}
V0303 09:09:41.935592 12578 torch/_subclasses/meta_utils.py:1640] {"describe_source": {"describer_id": 3, "id": 3, "source": "L['batch'][1]"}, "frame_id": 1, "frame_compile_id": 0, "attempt": 1}
V0303 09:09:41.937183 12578 torch/_subclasses/meta_utils.py:204] {"describe_storage": {"id": 4, "describer_id": 3, "size": 20480}, "frame_id": 1, "frame_compile_id": 0, "attempt": 1}
V0303 09:09:41.937472 12578 torch/_subclasses/meta_utils.py:417] {"describe_tensor": {"id": 6, "ndim": 3, "dtype": "torch.bool", "device": "device(type='cuda', index=0)", "size": [256, 20, 4], "is_leaf": true, "stride": [80, 4, 1], "storage": 4, "view_func": "<built-in method _view_func_unsafe of Tensor object at 0x7fba18a41180>", "describer_id": 3}, "frame_id": 1, "frame_compile_id": 0, "attempt": 1}
V0303 09:09:41.937682 12578 torch/_subclasses/meta_utils.py:417] {"describe_tensor": {"id": 5, "ndim": 2, "dtype": "torch.bool", "device": "device(type='cuda', index=0)", "size": [256, 80], "is_leaf": true, "is_view": true, "stride": [80, 1], "storage": 4, "base": 6, "creation_meta": "CreationMeta.NO_GRAD_MODE", "view_func": "<built-in method _view_func_unsafe of Tensor object at 0x7fb9fc4b4090>", "describer_id": 3}, "frame_id": 1, "frame_compile_id": 0, "attempt": 1}
V0303 09:09:41.937847 12578 torch/_subclasses/meta_utils.py:1640] {"describe_source": {"describer_id": 3, "id": 5, "source": "L['batch'][3]"}, "frame_id": 1, "frame_compile_id": 0, "attempt": 1}
V0303 09:09:41.939609 12578 torch/_subclasses/meta_utils.py:204] {"describe_storage": {"id": 5, "describer_id": 3, "size": 8192}, "frame_id": 1, "frame_compile_id": 0, "attempt": 1}
V0303 09:09:41.939897 12578 torch/_subclasses/meta_utils.py:417] {"describe_tensor": {"id": 8, "ndim": 2, "dtype": "torch.int64", "device": "device(type='cuda', index=0)", "size": [256, 4], "is_leaf": true, "stride": [4, 1], "storage": 5, "view_func": "<built-in method _view_func_unsafe of Tensor object at 0x7fb9fc4b40e0>", "describer_id": 3}, "frame_id": 1, "frame_compile_id": 0, "attempt": 1}
V0303 09:09:41.940108 12578 torch/_subclasses/meta_utils.py:417] {"describe_tensor": {"id": 7, "ndim": 2, "dtype": "torch.int64", "device": "device(type='cuda', index=0)", "size": [256, 4], "is_leaf": true, "is_view": true, "stride": [4, 1], "storage": 5, "base": 8, "creation_meta": "CreationMeta.NO_GRAD_MODE", "view_func": "<built-in method _view_func_unsafe of Tensor object at 0x7fb9fc4b4270>", "describer_id": 3}, "frame_id": 1, "frame_compile_id": 0, "attempt": 1}
V0303 09:09:41.940251 12578 torch/_subclasses/meta_utils.py:1640] {"describe_source": {"describer_id": 3, "id": 7, "source": "L['batch'][2]"}, "frame_id": 1, "frame_compile_id": 0, "attempt": 1}
V0303 09:09:41.941412 12578 torch/_subclasses/meta_utils.py:204] {"describe_storage": {"id": 6, "describer_id": 3, "size": 8192}, "frame_id": 1, "frame_compile_id": 0, "attempt": 1}
V0303 09:09:41.941653 12578 torch/_subclasses/meta_utils.py:417] {"describe_tensor": {"id": 9, "ndim": 2, "dtype": "torch.int64", "device": "device(type='cuda', index=0)", "size": [256, 4], "is_leaf": true, "stride": [4, 1], "storage": 6, "view_func": "<built-in method _view_func_unsafe of Tensor object at 0x7fb9fc4b4220>", "describer_id": 3}, "frame_id": 1, "frame_compile_id": 0, "attempt": 1}
V0303 09:09:41.941801 12578 torch/_subclasses/meta_utils.py:1640] {"describe_source": {"describer_id": 3, "id": 9, "source": "L['batch'][5]"}, "frame_id": 1, "frame_compile_id": 0, "attempt": 1}
V0303 09:09:41.944416 12578 torch/_subclasses/meta_utils.py:204] {"describe_storage": {"id": 7, "describer_id": 3, "size": 524800}, "frame_id": 1, "frame_compile_id": 0, "attempt": 1}
V0303 09:09:41.944666 12578 torch/_subclasses/meta_utils.py:417] {"describe_tensor": {"id": 10, "ndim": 2, "dtype": "torch.float32", "device": "device(type='cuda', index=0)", "size": [1025, 128], "is_leaf": true, "requires_grad": true, "is_parameter": true, "stride": [128, 1], "storage": 7, "view_func": "<built-in method _view_func_unsafe of Parameter object at 0x7fba18b0cf90>", "describer_id": 3}, "frame_id": 1, "frame_compile_id": 0, "attempt": 1}
V0303 09:09:41.944871 12578 torch/_subclasses/meta_utils.py:1640] {"describe_source": {"describer_id": 3, "id": 10, "source": "L['self']._modules['sem_id_embedder']._modules['emb']._parameters['weight']"}, "frame_id": 1, "frame_compile_id": 0, "attempt": 1}
V0303 09:09:41.951497 12578 torch/_subclasses/meta_utils.py:204] {"describe_storage": {"id": 8, "describer_id": 3, "size": 40960}, "frame_id": 1, "frame_compile_id": 0, "attempt": 1}
V0303 09:09:41.951759 12578 torch/_subclasses/meta_utils.py:417] {"describe_tensor": {"id": 11, "ndim": 2, "dtype": "torch.float32", "device": "device(type='cuda', index=0)", "size": [80, 128], "is_leaf": true, "requires_grad": true, "is_parameter": true, "stride": [128, 1], "storage": 8, "view_func": "<built-in method _view_func_unsafe of Parameter object at 0x7fba18b0a9f0>", "describer_id": 3}, "frame_id": 1, "frame_compile_id": 0, "attempt": 1}
V0303 09:09:41.951922 12578 torch/_subclasses/meta_utils.py:1640] {"describe_source": {"describer_id": 3, "id": 11, "source": "L['self']._modules['wpe']._parameters['weight']"}, "frame_id": 1, "frame_compile_id": 0, "attempt": 1}
V0303 09:09:41.954864 12578 torch/_subclasses/meta_utils.py:204] {"describe_storage": {"id": 9, "describer_id": 3, "size": 512}, "frame_id": 1, "frame_compile_id": 0, "attempt": 1}
V0303 09:09:41.955130 12578 torch/_subclasses/meta_utils.py:417] {"describe_tensor": {"id": 12, "ndim": 1, "dtype": "torch.float32", "device": "device(type='cuda', index=0)", "size": [128], "is_leaf": true, "requires_grad": true, "is_parameter": true, "stride": [1], "storage": 9, "view_func": "<built-in method _view_func_unsafe of Parameter object at 0x7fba18b0cb80>", "describer_id": 3}, "frame_id": 1, "frame_compile_id": 0, "attempt": 1}
V0303 09:09:41.955285 12578 torch/_subclasses/meta_utils.py:1640] {"describe_source": {"describer_id": 3, "id": 12, "source": "L['self']._parameters['bos_emb']"}, "frame_id": 1, "frame_compile_id": 0, "attempt": 1}
V0303 09:09:41.957452 12578 torch/_subclasses/meta_utils.py:204] {"describe_storage": {"id": 10, "describer_id": 3, "size": 2048}, "frame_id": 1, "frame_compile_id": 0, "attempt": 1}
V0303 09:09:41.957708 12578 torch/_subclasses/meta_utils.py:417] {"describe_tensor": {"id": 13, "ndim": 2, "dtype": "torch.float32", "device": "device(type='cuda', index=0)", "size": [4, 128], "is_leaf": true, "requires_grad": true, "is_parameter": true, "stride": [128, 1], "storage": 10, "view_func": "<built-in method _view_func_unsafe of Parameter object at 0x7fba18b12450>", "describer_id": 3}, "frame_id": 1, "frame_compile_id": 0, "attempt": 1}
V0303 09:09:41.957869 12578 torch/_subclasses/meta_utils.py:1640] {"describe_source": {"describer_id": 3, "id": 13, "source": "L['self']._modules['tte']._parameters['weight']"}, "frame_id": 1, "frame_compile_id": 0, "attempt": 1}
V0303 09:09:41.967013 12578 torch/_dynamo/output_graph.py:1346] {"dynamo_output_graph": {"sizes": {"l_batch_0_": [256, 1], "l_self_modules_user_id_embedder_modules_emb_parameters_weight_": [2000, 128], "l_batch_4_": [256, 80], "l_batch_1_": [256, 80], "l_batch_3_": [256, 80], "l_batch_2_": [256, 4], "l_batch_5_": [256, 4], "l_self_modules_sem_id_embedder_modules_emb_parameters_weight_": [1025, 128], "l_self_modules_wpe_parameters_weight_": [80, 128], "l_self_parameters_bos_emb_": [128], "l_self_modules_tte_parameters_weight_": [4, 128], "hashed_indices": [256, 1], "user_emb": [256, 1, 128], "mul": [256, 80], "sem_ids": [256, 80], "invert": [256, 80], "mul_1": [256, 4], "sem_ids_fut": [256, 4], "sem_ids_fut_1": [256, 4, 128], "sem_ids_emb": [256, 80, 128], "seq_lengths": [256], "arange": [80], "pos": [1, 80], "wpe": [1, 80, 128], "add_2": [256, 80, 128], "input_embedding": [256, 81, 128], "input_embedding_fut": [256, 1, 128], "tte_fut": [256, 4, 128], "add_3": [256, 4, 128], "input_embedding_fut_1": [256, 5, 128], "add_4": [256]}}, "frame_id": 1, "frame_compile_id": 0, "attempt": 1, "has_payload": "43049bd35ecf0d8f642fb3d1d41498c1"}
	class GraphModule(torch.nn.Module):
	    def forward(self, L_batch_0_: "i64[256, 1][1, 1]cuda:0", L_self_modules_user_id_embedder_modules_emb_parameters_weight_: "f32[2000, 128][128, 1]cuda:0", L_batch_4_: "i64[256, 80][80, 1]cuda:0", L_batch_1_: "i64[256, 80][80, 1]cuda:0", L_batch_3_: "b8[256, 80][80, 1]cuda:0", L_batch_2_: "i64[256, 4][4, 1]cuda:0", L_batch_5_: "i64[256, 4][4, 1]cuda:0", L_self_modules_sem_id_embedder_modules_emb_parameters_weight_: "f32[1025, 128][128, 1]cuda:0", L_self_modules_wpe_parameters_weight_: "f32[80, 128][128, 1]cuda:0", L_self_parameters_bos_emb_: "f32[128][1]cuda:0", L_self_modules_tte_parameters_weight_: "f32[4, 128][128, 1]cuda:0"):
	        l_batch_0_ = L_batch_0_
	        l_self_modules_user_id_embedder_modules_emb_parameters_weight_ = L_self_modules_user_id_embedder_modules_emb_parameters_weight_
	        l_batch_4_ = L_batch_4_
	        l_batch_1_ = L_batch_1_
	        l_batch_3_ = L_batch_3_
	        l_batch_2_ = L_batch_2_
	        l_batch_5_ = L_batch_5_
	        l_self_modules_sem_id_embedder_modules_emb_parameters_weight_ = L_self_modules_sem_id_embedder_modules_emb_parameters_weight_
	        l_self_modules_wpe_parameters_weight_ = L_self_modules_wpe_parameters_weight_
	        l_self_parameters_bos_emb_ = L_self_parameters_bos_emb_
	        l_self_modules_tte_parameters_weight_ = L_self_modules_tte_parameters_weight_
	        
	         # File: /home/ec2-user/code/RQ-VAE-Recommender/modules/embedding/id_embedder.py:51 in forward, code: hashed_indices = x % self.num_buckets
	        hashed_indices: "i64[256, 1][1, 1]cuda:0" = l_batch_0_ % 2000;  l_batch_0_ = None
	        
	         # File: /home/ec2-user/code/RQ-VAE-Recommender/modules/embedding/id_embedder.py:53 in forward, code: return self.emb(hashed_indices)
	        user_emb: "f32[256, 1, 128][128, 128, 1]cuda:0" = torch.nn.functional.embedding(hashed_indices, l_self_modules_user_id_embedder_modules_emb_parameters_weight_, None, None, 2.0, False, False);  hashed_indices = l_self_modules_user_id_embedder_modules_emb_parameters_weight_ = None
	        
	         # File: /home/ec2-user/code/RQ-VAE-Recommender/modules/embedding/id_embedder.py:29 in forward, code: sem_ids = batch.token_type_ids*self.num_embeddings + batch.sem_ids
	        mul: "i64[256, 80][80, 1]cuda:0" = l_batch_4_ * 256;  l_batch_4_ = None
	        sem_ids: "i64[256, 80][80, 1]cuda:0" = mul + l_batch_1_;  mul = l_batch_1_ = None
	        
	         # File: /home/ec2-user/code/RQ-VAE-Recommender/modules/embedding/id_embedder.py:30 in forward, code: sem_ids[~batch.seq_mask] = self.padding_idx
	        invert: "b8[256, 80][80, 1]cuda:0" = ~l_batch_3_
	        sem_ids[invert] = 1024;  setitem = sem_ids;  invert = setitem = None
	        
	         # File: /home/ec2-user/code/RQ-VAE-Recommender/modules/embedding/id_embedder.py:33 in forward, code: sem_ids_fut = batch.token_type_ids_fut*self.num_embeddings + batch.sem_ids_fut
	        mul_1: "i64[256, 4][4, 1]cuda:0" = l_batch_5_ * 256
	        sem_ids_fut: "i64[256, 4][4, 1]cuda:0" = mul_1 + l_batch_2_;  mul_1 = l_batch_2_ = None
	        
	         # File: /home/ec2-user/code/RQ-VAE-Recommender/modules/embedding/id_embedder.py:34 in forward, code: sem_ids_fut = self.emb(sem_ids_fut)
	        sem_ids_fut_1: "f32[256, 4, 128][512, 128, 1]cuda:0" = torch.nn.functional.embedding(sem_ids_fut, l_self_modules_sem_id_embedder_modules_emb_parameters_weight_, 1024, None, 2.0, False, False);  sem_ids_fut = None
	        
	         # File: /home/ec2-user/code/RQ-VAE-Recommender/modules/embedding/id_embedder.py:38 in forward, code: seq=self.emb(sem_ids),
	        sem_ids_emb: "f32[256, 80, 128][10240, 128, 1]cuda:0" = torch.nn.functional.embedding(sem_ids, l_self_modules_sem_id_embedder_modules_emb_parameters_weight_, 1024, None, 2.0, False, False);  sem_ids = l_self_modules_sem_id_embedder_modules_emb_parameters_weight_ = None
	        
	         # File: /home/ec2-user/code/RQ-VAE-Recommender/modules/model.py:292 in _predict, code: seq_lengths = batch.seq_mask.sum(axis=1)
	        seq_lengths: "i64[256][1]cuda:0" = l_batch_3_.sum(axis = 1);  l_batch_3_ = None
	        
	         # File: /home/ec2-user/code/RQ-VAE-Recommender/modules/model.py:299 in _predict, code: pos = torch.arange(N, device=sem_ids_emb.device).unsqueeze(0)
	        arange: "i64[80][1]cuda:0" = torch.arange(80, device = device(type='cuda', index=0))
	        pos: "i64[1, 80][80, 1]cuda:0" = arange.unsqueeze(0);  arange = None
	        
	         # File: /home/ec2-user/code/RQ-VAE-Recommender/modules/model.py:300 in _predict, code: wpe = self.wpe(pos)
	        wpe: "f32[1, 80, 128][10240, 128, 1]cuda:0" = torch.nn.functional.embedding(pos, l_self_modules_wpe_parameters_weight_, None, None, 2.0, False, False);  pos = l_self_modules_wpe_parameters_weight_ = None
	        
	         # File: /home/ec2-user/code/RQ-VAE-Recommender/modules/model.py:302 in _predict, code: input_embedding = torch.cat([user_emb, wpe + sem_ids_emb], axis=1)
	        add_2: "f32[256, 80, 128][10240, 128, 1]cuda:0" = wpe + sem_ids_emb;  wpe = sem_ids_emb = None
	        input_embedding: "f32[256, 81, 128][10368, 128, 1]cuda:0" = torch.cat([user_emb, add_2], axis = 1);  user_emb = add_2 = None
	        
	         # File: /home/ec2-user/code/RQ-VAE-Recommender/modules/model.py:303 in _predict, code: input_embedding_fut = self.bos_emb.repeat(B, 1, 1)
	        input_embedding_fut: "f32[256, 1, 128][128, 128, 1]cuda:0" = l_self_parameters_bos_emb_.repeat(256, 1, 1);  l_self_parameters_bos_emb_ = None
	        
	         # File: /home/ec2-user/code/RQ-VAE-Recommender/modules/model.py:305 in _predict, code: tte_fut = self.tte(batch.token_type_ids_fut)
	        tte_fut: "f32[256, 4, 128][512, 128, 1]cuda:0" = torch.nn.functional.embedding(l_batch_5_, l_self_modules_tte_parameters_weight_, None, None, 2.0, False, False);  l_batch_5_ = l_self_modules_tte_parameters_weight_ = None
	        
	         # File: /home/ec2-user/code/RQ-VAE-Recommender/modules/model.py:308 in _predict, code: sem_ids_emb_fut + tte_fut
	        add_3: "f32[256, 4, 128][512, 128, 1]cuda:0" = sem_ids_fut_1 + tte_fut;  sem_ids_fut_1 = tte_fut = None
	        
	         # File: /home/ec2-user/code/RQ-VAE-Recommender/modules/model.py:306 in _predict, code: input_embedding_fut = torch.cat([
	        input_embedding_fut_1: "f32[256, 5, 128][640, 128, 1]cuda:0" = torch.cat([input_embedding_fut, add_3], axis = 1);  input_embedding_fut = add_3 = None
	        
	         # File: /home/ec2-user/code/RQ-VAE-Recommender/modules/model.py:313 in _predict, code: input_embedding = padded_to_jagged_tensor(input_embedding, lengths=seq_lengths+1)
	        add_4: "i64[256][1]cuda:0" = seq_lengths + 1;  seq_lengths = None
	        return (input_embedding, add_4, input_embedding_fut_1)
	        
V0303 09:09:41.967465 12578 torch/_dynamo/utils.py:953] {"chromium_event": {}, "frame_id": 1, "frame_compile_id": 0, "attempt": 1, "has_payload": "75a0322ebc569bfabda83d8d185a8750"}
	{
	"name": "OutputGraph.call_user_compiler",
	"ts": 1740992981967407.5,
	"args": null,
	"ph": "B",
	"cat": "dynamo_timed",
	"tid": 0,
	"pid": 0
	}
V0303 09:09:41.967645 12578 torch/_dynamo/utils.py:953] {"chromium_event": {}, "frame_id": 1, "frame_compile_id": 0, "attempt": 1, "has_payload": "fb244f8e37107fc640c0138494c38033"}
	{
	"name": "backend_compile",
	"ts": 1740992981967407.5,
	"args": null,
	"ph": "B",
	"cat": "dynamo_timed",
	"tid": 0,
	"pid": 0
	}
V0303 09:09:41.979100 12578 torch/_dynamo/utils.py:953] {"chromium_event": {}, "frame_id": 1, "frame_compile_id": 0, "attempt": 1, "has_payload": "eb70d04486fb61d008eb86182a8c9aa8"}
	{
	"name": "create_aot_dispatcher_function",
	"ts": 1740992981979042.0,
	"args": null,
	"ph": "B",
	"cat": "dynamo_timed",
	"tid": 0,
	"pid": 0
	}
V0303 09:09:42.078122 12578 torch/_functorch/_aot_autograd/jit_compile_runtime_wrappers.py:352] {"aot_joint_graph": {}, "frame_id": 1, "frame_compile_id": 0, "attempt": 1, "has_payload": "b74f5e14b752be0366e31ea55c31dc8d"}
	class joint_helper(torch.nn.Module):
	    def forward(self, primals, tangents):
	        primals_1: "i64[256, 1][1, 1]cuda:0"; primals_2: "f32[2000, 128][128, 1]cuda:0"; primals_3: "i64[256, 80][80, 1]cuda:0"; primals_4: "i64[256, 80][80, 1]cuda:0"; primals_5: "b8[256, 80][80, 1]cuda:0"; primals_6: "i64[256, 4][4, 1]cuda:0"; primals_7: "i64[256, 4][4, 1]cuda:0"; primals_8: "f32[1025, 128][128, 1]cuda:0"; primals_9: "f32[80, 128][128, 1]cuda:0"; primals_10: "f32[128][1]cuda:0"; primals_11: "f32[4, 128][128, 1]cuda:0"; tangents_1: "f32[256, 81, 128][10368, 128, 1]cuda:0"; tangents_2: "f32[256, 5, 128][640, 128, 1]cuda:0"; 
	    
	        primals_1, primals_2, primals_3, primals_4, primals_5, primals_6, primals_7, primals_8, primals_9, primals_10, primals_11, tangents_1, tangents_2, = fx_pytree.tree_flatten_spec([primals, tangents], self._in_spec)
	         # File: /home/ec2-user/code/RQ-VAE-Recommender/modules/embedding/id_embedder.py:51 in forward, code: hashed_indices = x % self.num_buckets
	        remainder: "i64[256, 1][1, 1]cuda:0" = torch.ops.aten.remainder.Scalar(primals_1, 2000);  primals_1 = None
	        
	         # File: /home/ec2-user/code/RQ-VAE-Recommender/modules/embedding/id_embedder.py:53 in forward, code: return self.emb(hashed_indices)
	        embedding: "f32[256, 1, 128][128, 128, 1]cuda:0" = torch.ops.aten.embedding.default(primals_2, remainder);  primals_2 = None
	        
	         # File: /home/ec2-user/code/RQ-VAE-Recommender/modules/embedding/id_embedder.py:29 in forward, code: sem_ids = batch.token_type_ids*self.num_embeddings + batch.sem_ids
	        mul: "i64[256, 80][80, 1]cuda:0" = torch.ops.aten.mul.Tensor(primals_3, 256);  primals_3 = None
	        add: "i64[256, 80][80, 1]cuda:0" = torch.ops.aten.add.Tensor(mul, primals_4);  mul = primals_4 = None
	        
	         # File: /home/ec2-user/code/RQ-VAE-Recommender/modules/embedding/id_embedder.py:30 in forward, code: sem_ids[~batch.seq_mask] = self.padding_idx
	        bitwise_not: "b8[256, 80][80, 1]cuda:0" = torch.ops.aten.bitwise_not.default(primals_5)
	        _tensor_constant0 = self._tensor_constant0
	        lift_fresh_copy: "i64[][]cpu" = torch.ops.aten.lift_fresh_copy.default(_tensor_constant0);  _tensor_constant0 = None
	        index_put: "i64[256, 80][80, 1]cuda:0" = torch.ops.aten.index_put.default(add, [bitwise_not], lift_fresh_copy);  add = bitwise_not = lift_fresh_copy = None
	        
	         # File: /home/ec2-user/code/RQ-VAE-Recommender/modules/embedding/id_embedder.py:33 in forward, code: sem_ids_fut = batch.token_type_ids_fut*self.num_embeddings + batch.sem_ids_fut
	        mul_1: "i64[256, 4][4, 1]cuda:0" = torch.ops.aten.mul.Tensor(primals_7, 256)
	        add_1: "i64[256, 4][4, 1]cuda:0" = torch.ops.aten.add.Tensor(mul_1, primals_6);  mul_1 = primals_6 = None
	        
	         # File: /home/ec2-user/code/RQ-VAE-Recommender/modules/embedding/id_embedder.py:34 in forward, code: sem_ids_fut = self.emb(sem_ids_fut)
	        embedding_1: "f32[256, 4, 128][512, 128, 1]cuda:0" = torch.ops.aten.embedding.default(primals_8, add_1, 1024)
	        
	         # File: /home/ec2-user/code/RQ-VAE-Recommender/modules/embedding/id_embedder.py:38 in forward, code: seq=self.emb(sem_ids),
	        embedding_2: "f32[256, 80, 128][10240, 128, 1]cuda:0" = torch.ops.aten.embedding.default(primals_8, index_put, 1024);  primals_8 = None
	        
	         # File: /home/ec2-user/code/RQ-VAE-Recommender/modules/model.py:292 in _predict, code: seq_lengths = batch.seq_mask.sum(axis=1)
	        sum_1: "i64[256][1]cuda:0" = torch.ops.aten.sum.dim_IntList(primals_5, [1]);  primals_5 = None
	        
	         # File: /home/ec2-user/code/RQ-VAE-Recommender/modules/model.py:299 in _predict, code: pos = torch.arange(N, device=sem_ids_emb.device).unsqueeze(0)
	        iota: "i64[80][1]cuda:0" = torch.ops.prims.iota.default(80, start = 0, step = 1, dtype = torch.int64, device = device(type='cuda', index=0), requires_grad = False)
	        unsqueeze: "i64[1, 80][80, 1]cuda:0" = torch.ops.aten.unsqueeze.default(iota, 0);  iota = None
	        
	         # File: /home/ec2-user/code/RQ-VAE-Recommender/modules/model.py:300 in _predict, code: wpe = self.wpe(pos)
	        embedding_3: "f32[1, 80, 128][10240, 128, 1]cuda:0" = torch.ops.aten.embedding.default(primals_9, unsqueeze);  primals_9 = None
	        
	         # File: /home/ec2-user/code/RQ-VAE-Recommender/modules/model.py:302 in _predict, code: input_embedding = torch.cat([user_emb, wpe + sem_ids_emb], axis=1)
	        add_2: "f32[256, 80, 128][10240, 128, 1]cuda:0" = torch.ops.aten.add.Tensor(embedding_3, embedding_2);  embedding_3 = embedding_2 = None
	        cat: "f32[256, 81, 128][10368, 128, 1]cuda:0" = torch.ops.aten.cat.default([embedding, add_2], 1);  embedding = add_2 = None
	        
	         # File: /home/ec2-user/code/RQ-VAE-Recommender/modules/model.py:303 in _predict, code: input_embedding_fut = self.bos_emb.repeat(B, 1, 1)
	        repeat: "f32[256, 1, 128][128, 128, 1]cuda:0" = torch.ops.aten.repeat.default(primals_10, [256, 1, 1]);  primals_10 = None
	        
	         # File: /home/ec2-user/code/RQ-VAE-Recommender/modules/model.py:305 in _predict, code: tte_fut = self.tte(batch.token_type_ids_fut)
	        embedding_4: "f32[256, 4, 128][512, 128, 1]cuda:0" = torch.ops.aten.embedding.default(primals_11, primals_7);  primals_11 = None
	        
	         # File: /home/ec2-user/code/RQ-VAE-Recommender/modules/model.py:308 in _predict, code: sem_ids_emb_fut + tte_fut
	        add_3: "f32[256, 4, 128][512, 128, 1]cuda:0" = torch.ops.aten.add.Tensor(embedding_1, embedding_4);  embedding_1 = embedding_4 = None
	        
	         # File: /home/ec2-user/code/RQ-VAE-Recommender/modules/model.py:306 in _predict, code: input_embedding_fut = torch.cat([
	        cat_1: "f32[256, 5, 128][640, 128, 1]cuda:0" = torch.ops.aten.cat.default([repeat, add_3], 1);  repeat = add_3 = None
	        
	         # File: /home/ec2-user/code/RQ-VAE-Recommender/modules/model.py:313 in _predict, code: input_embedding = padded_to_jagged_tensor(input_embedding, lengths=seq_lengths+1)
	        add_4: "i64[256][1]cuda:0" = torch.ops.aten.add.Tensor(sum_1, 1);  sum_1 = None
	        
	         # File: /home/ec2-user/code/RQ-VAE-Recommender/modules/model.py:306 in _predict, code: input_embedding_fut = torch.cat([
	        slice_1: "f32[256, 1, 128][640, 128, 1]cuda:0" = torch.ops.aten.slice.Tensor(tangents_2, 1, 0, 1)
	        slice_2: "f32[256, 4, 128][640, 128, 1]cuda:0" = torch.ops.aten.slice.Tensor(tangents_2, 1, 1, 5);  tangents_2 = None
	        
	         # File: /home/ec2-user/code/RQ-VAE-Recommender/modules/model.py:305 in _predict, code: tte_fut = self.tte(batch.token_type_ids_fut)
	        eq: "b8[256, 4][4, 1]cuda:0" = torch.ops.aten.eq.Scalar(primals_7, -1)
	        unsqueeze_1: "b8[256, 4, 1][4, 1, 1]cuda:0" = torch.ops.aten.unsqueeze.default(eq, -1);  eq = None
	        scalar_tensor: "f32[][]cuda:0" = torch.ops.aten.scalar_tensor.default(0.0, dtype = torch.float32, layout = torch.strided, device = device(type='cuda', index=0))
	        where: "f32[256, 4, 128][512, 128, 1]cuda:0" = torch.ops.aten.where.self(unsqueeze_1, scalar_tensor, slice_2);  unsqueeze_1 = scalar_tensor = None
	        full: "f32[4, 128][128, 1]cuda:0" = torch.ops.aten.full.default([4, 128], 0, dtype = torch.float32, layout = torch.strided, device = device(type='cuda', index=0), pin_memory = False)
	        index_put_1: "f32[4, 128][128, 1]cuda:0" = torch.ops.aten.index_put.default(full, [primals_7], where, True);  full = primals_7 = where = None
	        
	         # File: /home/ec2-user/code/RQ-VAE-Recommender/modules/model.py:303 in _predict, code: input_embedding_fut = self.bos_emb.repeat(B, 1, 1)
	        sum_2: "f32[1, 128][128, 1]cuda:0" = torch.ops.aten.sum.dim_IntList(slice_1, [0]);  slice_1 = None
	        sum_3: "f32[128][1]cuda:0" = torch.ops.aten.sum.dim_IntList(sum_2, [0]);  sum_2 = None
	        
	         # File: /home/ec2-user/code/RQ-VAE-Recommender/modules/model.py:302 in _predict, code: input_embedding = torch.cat([user_emb, wpe + sem_ids_emb], axis=1)
	        slice_3: "f32[256, 1, 128][10368, 128, 1]cuda:0" = torch.ops.aten.slice.Tensor(tangents_1, 1, 0, 1)
	        slice_4: "f32[256, 80, 128][10368, 128, 1]cuda:0" = torch.ops.aten.slice.Tensor(tangents_1, 1, 1, 81);  tangents_1 = None
	        sum_4: "f32[1, 80, 128][10240, 128, 1]cuda:0" = torch.ops.aten.sum.dim_IntList(slice_4, [0], True)
	        
	         # File: /home/ec2-user/code/RQ-VAE-Recommender/modules/model.py:300 in _predict, code: wpe = self.wpe(pos)
	        eq_1: "b8[1, 80][80, 1]cuda:0" = torch.ops.aten.eq.Scalar(unsqueeze, -1)
	        unsqueeze_2: "b8[1, 80, 1][80, 1, 1]cuda:0" = torch.ops.aten.unsqueeze.default(eq_1, -1);  eq_1 = None
	        scalar_tensor_1: "f32[][]cuda:0" = torch.ops.aten.scalar_tensor.default(0.0, dtype = torch.float32, layout = torch.strided, device = device(type='cuda', index=0))
	        where_1: "f32[1, 80, 128][10240, 128, 1]cuda:0" = torch.ops.aten.where.self(unsqueeze_2, scalar_tensor_1, sum_4);  unsqueeze_2 = scalar_tensor_1 = sum_4 = None
	        full_1: "f32[80, 128][128, 1]cuda:0" = torch.ops.aten.full.default([80, 128], 0, dtype = torch.float32, layout = torch.strided, device = device(type='cuda', index=0), pin_memory = False)
	        index_put_2: "f32[80, 128][128, 1]cuda:0" = torch.ops.aten.index_put.default(full_1, [unsqueeze], where_1, True);  full_1 = unsqueeze = where_1 = None
	        
	         # File: /home/ec2-user/code/RQ-VAE-Recommender/modules/embedding/id_embedder.py:38 in forward, code: seq=self.emb(sem_ids),
	        eq_2: "b8[256, 80][80, 1]cuda:0" = torch.ops.aten.eq.Scalar(index_put, 1024)
	        unsqueeze_3: "b8[256, 80, 1][80, 1, 1]cuda:0" = torch.ops.aten.unsqueeze.default(eq_2, -1);  eq_2 = None
	        scalar_tensor_2: "f32[][]cuda:0" = torch.ops.aten.scalar_tensor.default(0.0, dtype = torch.float32, layout = torch.strided, device = device(type='cuda', index=0))
	        where_2: "f32[256, 80, 128][10240, 128, 1]cuda:0" = torch.ops.aten.where.self(unsqueeze_3, scalar_tensor_2, slice_4);  unsqueeze_3 = scalar_tensor_2 = slice_4 = None
	        full_2: "f32[1025, 128][128, 1]cuda:0" = torch.ops.aten.full.default([1025, 128], 0, dtype = torch.float32, layout = torch.strided, device = device(type='cuda', index=0), pin_memory = False)
	        index_put_3: "f32[1025, 128][128, 1]cuda:0" = torch.ops.aten.index_put.default(full_2, [index_put], where_2, True);  full_2 = index_put = where_2 = None
	        
	         # File: /home/ec2-user/code/RQ-VAE-Recommender/modules/embedding/id_embedder.py:34 in forward, code: sem_ids_fut = self.emb(sem_ids_fut)
	        eq_3: "b8[256, 4][4, 1]cuda:0" = torch.ops.aten.eq.Scalar(add_1, 1024)
	        unsqueeze_4: "b8[256, 4, 1][4, 1, 1]cuda:0" = torch.ops.aten.unsqueeze.default(eq_3, -1);  eq_3 = None
	        scalar_tensor_3: "f32[][]cuda:0" = torch.ops.aten.scalar_tensor.default(0.0, dtype = torch.float32, layout = torch.strided, device = device(type='cuda', index=0))
	        where_3: "f32[256, 4, 128][512, 128, 1]cuda:0" = torch.ops.aten.where.self(unsqueeze_4, scalar_tensor_3, slice_2);  unsqueeze_4 = scalar_tensor_3 = slice_2 = None
	        full_3: "f32[1025, 128][128, 1]cuda:0" = torch.ops.aten.full.default([1025, 128], 0, dtype = torch.float32, layout = torch.strided, device = device(type='cuda', index=0), pin_memory = False)
	        index_put_4: "f32[1025, 128][128, 1]cuda:0" = torch.ops.aten.index_put.default(full_3, [add_1], where_3, True);  full_3 = add_1 = where_3 = None
	        
	         # File: /home/ec2-user/code/RQ-VAE-Recommender/modules/embedding/id_embedder.py:34 in forward, code: sem_ids_fut = self.emb(sem_ids_fut)
	        add_5: "f32[1025, 128][128, 1]cuda:0" = torch.ops.aten.add.Tensor(index_put_3, index_put_4);  index_put_3 = index_put_4 = None
	        
	         # File: /home/ec2-user/code/RQ-VAE-Recommender/modules/embedding/id_embedder.py:53 in forward, code: return self.emb(hashed_indices)
	        eq_4: "b8[256, 1][1, 1]cuda:0" = torch.ops.aten.eq.Scalar(remainder, -1)
	        unsqueeze_5: "b8[256, 1, 1][1, 1, 1]cuda:0" = torch.ops.aten.unsqueeze.default(eq_4, -1);  eq_4 = None
	        scalar_tensor_4: "f32[][]cuda:0" = torch.ops.aten.scalar_tensor.default(0.0, dtype = torch.float32, layout = torch.strided, device = device(type='cuda', index=0))
	        where_4: "f32[256, 1, 128][128, 128, 1]cuda:0" = torch.ops.aten.where.self(unsqueeze_5, scalar_tensor_4, slice_3);  unsqueeze_5 = scalar_tensor_4 = slice_3 = None
	        full_4: "f32[2000, 128][128, 1]cuda:0" = torch.ops.aten.full.default([2000, 128], 0, dtype = torch.float32, layout = torch.strided, device = device(type='cuda', index=0), pin_memory = False)
	        index_put_5: "f32[2000, 128][128, 1]cuda:0" = torch.ops.aten.index_put.default(full_4, [remainder], where_4, True);  full_4 = remainder = where_4 = None
	        return pytree.tree_unflatten([cat, add_4, cat_1, None, index_put_5, None, None, None, None, None, add_5, index_put_2, sum_3, index_put_1], self._out_spec)
	        
V0303 09:09:42.304957 12578 torch/_functorch/_aot_autograd/jit_compile_runtime_wrappers.py:545] {"aot_forward_graph": {}, "frame_id": 1, "frame_compile_id": 0, "attempt": 1, "has_payload": "3033c8b1dee349505c2b29d083021046"}
	class GraphModule(torch.nn.Module):
	    def forward(self, primals_1: "i64[256, 1][1, 1]cuda:0", primals_2: "f32[2000, 128][128, 1]cuda:0", primals_3: "i64[256, 80][80, 1]cuda:0", primals_4: "i64[256, 80][80, 1]cuda:0", primals_5: "b8[256, 80][80, 1]cuda:0", primals_6: "i64[256, 4][4, 1]cuda:0", primals_7: "i64[256, 4][4, 1]cuda:0", primals_8: "f32[1025, 128][128, 1]cuda:0", primals_9: "f32[80, 128][128, 1]cuda:0", primals_10: "f32[128][1]cuda:0", primals_11: "f32[4, 128][128, 1]cuda:0"):
	         # File: /home/ec2-user/code/RQ-VAE-Recommender/modules/embedding/id_embedder.py:51 in forward, code: hashed_indices = x % self.num_buckets
	        remainder: "i64[256, 1][1, 1]cuda:0" = torch.ops.aten.remainder.Scalar(primals_1, 2000);  primals_1 = None
	        
	         # File: /home/ec2-user/code/RQ-VAE-Recommender/modules/embedding/id_embedder.py:53 in forward, code: return self.emb(hashed_indices)
	        embedding: "f32[256, 1, 128][128, 128, 1]cuda:0" = torch.ops.aten.embedding.default(primals_2, remainder);  primals_2 = None
	        
	         # File: /home/ec2-user/code/RQ-VAE-Recommender/modules/embedding/id_embedder.py:29 in forward, code: sem_ids = batch.token_type_ids*self.num_embeddings + batch.sem_ids
	        mul: "i64[256, 80][80, 1]cuda:0" = torch.ops.aten.mul.Tensor(primals_3, 256);  primals_3 = None
	        add: "i64[256, 80][80, 1]cuda:0" = torch.ops.aten.add.Tensor(mul, primals_4);  mul = primals_4 = None
	        
	         # File: /home/ec2-user/code/RQ-VAE-Recommender/modules/embedding/id_embedder.py:30 in forward, code: sem_ids[~batch.seq_mask] = self.padding_idx
	        bitwise_not: "b8[256, 80][80, 1]cuda:0" = torch.ops.aten.bitwise_not.default(primals_5)
	        full_default: "i64[][]cpu" = torch.ops.aten.full.default([], 1024, dtype = torch.int64, layout = torch.strided, device = device(type='cpu'), pin_memory = False)
	        index_put: "i64[256, 80][80, 1]cuda:0" = torch.ops.aten.index_put.default(add, [bitwise_not], full_default);  add = bitwise_not = full_default = None
	        
	         # File: /home/ec2-user/code/RQ-VAE-Recommender/modules/embedding/id_embedder.py:33 in forward, code: sem_ids_fut = batch.token_type_ids_fut*self.num_embeddings + batch.sem_ids_fut
	        mul_1: "i64[256, 4][4, 1]cuda:0" = torch.ops.aten.mul.Tensor(primals_7, 256)
	        add_1: "i64[256, 4][4, 1]cuda:0" = torch.ops.aten.add.Tensor(mul_1, primals_6);  mul_1 = primals_6 = None
	        
	         # File: /home/ec2-user/code/RQ-VAE-Recommender/modules/embedding/id_embedder.py:34 in forward, code: sem_ids_fut = self.emb(sem_ids_fut)
	        embedding_1: "f32[256, 4, 128][512, 128, 1]cuda:0" = torch.ops.aten.embedding.default(primals_8, add_1, 1024)
	        
	         # File: /home/ec2-user/code/RQ-VAE-Recommender/modules/embedding/id_embedder.py:38 in forward, code: seq=self.emb(sem_ids),
	        embedding_2: "f32[256, 80, 128][10240, 128, 1]cuda:0" = torch.ops.aten.embedding.default(primals_8, index_put, 1024);  primals_8 = None
	        
	         # File: /home/ec2-user/code/RQ-VAE-Recommender/modules/model.py:292 in _predict, code: seq_lengths = batch.seq_mask.sum(axis=1)
	        sum_1: "i64[256][1]cuda:0" = torch.ops.aten.sum.dim_IntList(primals_5, [1]);  primals_5 = None
	        
	         # File: /home/ec2-user/code/RQ-VAE-Recommender/modules/model.py:299 in _predict, code: pos = torch.arange(N, device=sem_ids_emb.device).unsqueeze(0)
	        iota: "i64[80][1]cuda:0" = torch.ops.prims.iota.default(80, start = 0, step = 1, dtype = torch.int64, device = device(type='cuda', index=0), requires_grad = False)
	        unsqueeze: "i64[1, 80][80, 1]cuda:0" = torch.ops.aten.unsqueeze.default(iota, 0);  iota = None
	        
	         # File: /home/ec2-user/code/RQ-VAE-Recommender/modules/model.py:300 in _predict, code: wpe = self.wpe(pos)
	        embedding_3: "f32[1, 80, 128][10240, 128, 1]cuda:0" = torch.ops.aten.embedding.default(primals_9, unsqueeze);  primals_9 = None
	        
	         # File: /home/ec2-user/code/RQ-VAE-Recommender/modules/model.py:302 in _predict, code: input_embedding = torch.cat([user_emb, wpe + sem_ids_emb], axis=1)
	        add_2: "f32[256, 80, 128][10240, 128, 1]cuda:0" = torch.ops.aten.add.Tensor(embedding_3, embedding_2);  embedding_3 = embedding_2 = None
	        cat: "f32[256, 81, 128][10368, 128, 1]cuda:0" = torch.ops.aten.cat.default([embedding, add_2], 1);  embedding = add_2 = None
	        
	         # File: /home/ec2-user/code/RQ-VAE-Recommender/modules/model.py:303 in _predict, code: input_embedding_fut = self.bos_emb.repeat(B, 1, 1)
	        repeat: "f32[256, 1, 128][128, 128, 1]cuda:0" = torch.ops.aten.repeat.default(primals_10, [256, 1, 1]);  primals_10 = None
	        
	         # File: /home/ec2-user/code/RQ-VAE-Recommender/modules/model.py:305 in _predict, code: tte_fut = self.tte(batch.token_type_ids_fut)
	        embedding_4: "f32[256, 4, 128][512, 128, 1]cuda:0" = torch.ops.aten.embedding.default(primals_11, primals_7);  primals_11 = None
	        
	         # File: /home/ec2-user/code/RQ-VAE-Recommender/modules/model.py:308 in _predict, code: sem_ids_emb_fut + tte_fut
	        add_3: "f32[256, 4, 128][512, 128, 1]cuda:0" = torch.ops.aten.add.Tensor(embedding_1, embedding_4);  embedding_1 = embedding_4 = None
	        
	         # File: /home/ec2-user/code/RQ-VAE-Recommender/modules/model.py:306 in _predict, code: input_embedding_fut = torch.cat([
	        cat_1: "f32[256, 5, 128][640, 128, 1]cuda:0" = torch.ops.aten.cat.default([repeat, add_3], 1);  repeat = add_3 = None
	        
	         # File: /home/ec2-user/code/RQ-VAE-Recommender/modules/model.py:313 in _predict, code: input_embedding = padded_to_jagged_tensor(input_embedding, lengths=seq_lengths+1)
	        add_4: "i64[256][1]cuda:0" = torch.ops.aten.add.Tensor(sum_1, 1);  sum_1 = None
	        return (cat, add_4, cat_1, primals_7, remainder, index_put, add_1, unsqueeze)
	        
V0303 09:09:42.306646 12578 torch/_functorch/_aot_autograd/jit_compile_runtime_wrappers.py:551] {"aot_backward_graph": {}, "frame_id": 1, "frame_compile_id": 0, "attempt": 1, "has_payload": "91455860bdcacf48bd47c211cb0e7bce"}
	class GraphModule(torch.nn.Module):
	    def forward(self, primals_7: "i64[256, 4][4, 1]cuda:0", remainder: "i64[256, 1][1, 1]cuda:0", index_put: "i64[256, 80][80, 1]cuda:0", add_1: "i64[256, 4][4, 1]cuda:0", unsqueeze: "i64[1, 80][80, 1]cuda:0", tangents_1: "f32[256, 81, 128][10368, 128, 1]cuda:0", tangents_2: "f32[256, 5, 128][640, 128, 1]cuda:0"):
	         # File: /home/ec2-user/code/RQ-VAE-Recommender/modules/model.py:306 in _predict, code: input_embedding_fut = torch.cat([
	        slice_1: "f32[256, 1, 128][640, 128, 1]cuda:0" = torch.ops.aten.slice.Tensor(tangents_2, 1, 0, 1)
	        slice_2: "f32[256, 4, 128][640, 128, 1]cuda:0" = torch.ops.aten.slice.Tensor(tangents_2, 1, 1, 5);  tangents_2 = None
	        
	         # File: /home/ec2-user/code/RQ-VAE-Recommender/modules/model.py:305 in _predict, code: tte_fut = self.tte(batch.token_type_ids_fut)
	        eq: "b8[256, 4][4, 1]cuda:0" = torch.ops.aten.eq.Scalar(primals_7, -1)
	        unsqueeze_1: "b8[256, 4, 1][4, 1, 1]cuda:0" = torch.ops.aten.unsqueeze.default(eq, -1);  eq = None
	        full_default_1: "f32[][]cuda:0" = torch.ops.aten.full.default([], 0.0, dtype = torch.float32, layout = torch.strided, device = device(type='cuda', index=0), pin_memory = False)
	        where: "f32[256, 4, 128][512, 128, 1]cuda:0" = torch.ops.aten.where.self(unsqueeze_1, full_default_1, slice_2);  unsqueeze_1 = None
	        full_default_2: "f32[4, 128][128, 1]cuda:0" = torch.ops.aten.full.default([4, 128], 0, dtype = torch.float32, layout = torch.strided, device = device(type='cuda', index=0), pin_memory = False)
	        index_put_1: "f32[4, 128][128, 1]cuda:0" = torch.ops.aten.index_put.default(full_default_2, [primals_7], where, True);  full_default_2 = primals_7 = where = None
	        
	         # File: /home/ec2-user/code/RQ-VAE-Recommender/modules/model.py:303 in _predict, code: input_embedding_fut = self.bos_emb.repeat(B, 1, 1)
	        sum_2: "f32[1, 128][128, 1]cuda:0" = torch.ops.aten.sum.dim_IntList(slice_1, [0]);  slice_1 = None
	        sum_3: "f32[128][1]cuda:0" = torch.ops.aten.sum.dim_IntList(sum_2, [0]);  sum_2 = None
	        
	         # File: /home/ec2-user/code/RQ-VAE-Recommender/modules/model.py:302 in _predict, code: input_embedding = torch.cat([user_emb, wpe + sem_ids_emb], axis=1)
	        slice_3: "f32[256, 1, 128][10368, 128, 1]cuda:0" = torch.ops.aten.slice.Tensor(tangents_1, 1, 0, 1)
	        slice_4: "f32[256, 80, 128][10368, 128, 1]cuda:0" = torch.ops.aten.slice.Tensor(tangents_1, 1, 1, 81);  tangents_1 = None
	        sum_4: "f32[1, 80, 128][10240, 128, 1]cuda:0" = torch.ops.aten.sum.dim_IntList(slice_4, [0], True)
	        
	         # File: /home/ec2-user/code/RQ-VAE-Recommender/modules/model.py:300 in _predict, code: wpe = self.wpe(pos)
	        eq_1: "b8[1, 80][80, 1]cuda:0" = torch.ops.aten.eq.Scalar(unsqueeze, -1)
	        unsqueeze_2: "b8[1, 80, 1][80, 1, 1]cuda:0" = torch.ops.aten.unsqueeze.default(eq_1, -1);  eq_1 = None
	        where_1: "f32[1, 80, 128][10240, 128, 1]cuda:0" = torch.ops.aten.where.self(unsqueeze_2, full_default_1, sum_4);  unsqueeze_2 = sum_4 = None
	        full_default_4: "f32[80, 128][128, 1]cuda:0" = torch.ops.aten.full.default([80, 128], 0, dtype = torch.float32, layout = torch.strided, device = device(type='cuda', index=0), pin_memory = False)
	        index_put_2: "f32[80, 128][128, 1]cuda:0" = torch.ops.aten.index_put.default(full_default_4, [unsqueeze], where_1, True);  full_default_4 = unsqueeze = where_1 = None
	        
	         # File: /home/ec2-user/code/RQ-VAE-Recommender/modules/embedding/id_embedder.py:38 in forward, code: seq=self.emb(sem_ids),
	        eq_2: "b8[256, 80][80, 1]cuda:0" = torch.ops.aten.eq.Scalar(index_put, 1024)
	        unsqueeze_3: "b8[256, 80, 1][80, 1, 1]cuda:0" = torch.ops.aten.unsqueeze.default(eq_2, -1);  eq_2 = None
	        where_2: "f32[256, 80, 128][10240, 128, 1]cuda:0" = torch.ops.aten.where.self(unsqueeze_3, full_default_1, slice_4);  unsqueeze_3 = slice_4 = None
	        full_default_6: "f32[1025, 128][128, 1]cuda:0" = torch.ops.aten.full.default([1025, 128], 0, dtype = torch.float32, layout = torch.strided, device = device(type='cuda', index=0), pin_memory = False)
	        index_put_3: "f32[1025, 128][128, 1]cuda:0" = torch.ops.aten.index_put.default(full_default_6, [index_put], where_2, True);  index_put = where_2 = None
	        
	         # File: /home/ec2-user/code/RQ-VAE-Recommender/modules/embedding/id_embedder.py:34 in forward, code: sem_ids_fut = self.emb(sem_ids_fut)
	        eq_3: "b8[256, 4][4, 1]cuda:0" = torch.ops.aten.eq.Scalar(add_1, 1024)
	        unsqueeze_4: "b8[256, 4, 1][4, 1, 1]cuda:0" = torch.ops.aten.unsqueeze.default(eq_3, -1);  eq_3 = None
	        where_3: "f32[256, 4, 128][512, 128, 1]cuda:0" = torch.ops.aten.where.self(unsqueeze_4, full_default_1, slice_2);  unsqueeze_4 = slice_2 = None
	        index_put_4: "f32[1025, 128][128, 1]cuda:0" = torch.ops.aten.index_put.default(full_default_6, [add_1], where_3, True);  full_default_6 = add_1 = where_3 = None
	        
	         # File: /home/ec2-user/code/RQ-VAE-Recommender/modules/embedding/id_embedder.py:34 in forward, code: sem_ids_fut = self.emb(sem_ids_fut)
	        add_5: "f32[1025, 128][128, 1]cuda:0" = torch.ops.aten.add.Tensor(index_put_3, index_put_4);  index_put_3 = index_put_4 = None
	        
	         # File: /home/ec2-user/code/RQ-VAE-Recommender/modules/embedding/id_embedder.py:53 in forward, code: return self.emb(hashed_indices)
	        eq_4: "b8[256, 1][1, 1]cuda:0" = torch.ops.aten.eq.Scalar(remainder, -1)
	        unsqueeze_5: "b8[256, 1, 1][1, 1, 1]cuda:0" = torch.ops.aten.unsqueeze.default(eq_4, -1);  eq_4 = None
	        where_4: "f32[256, 1, 128][128, 128, 1]cuda:0" = torch.ops.aten.where.self(unsqueeze_5, full_default_1, slice_3);  unsqueeze_5 = full_default_1 = slice_3 = None
	        full_default_10: "f32[2000, 128][128, 1]cuda:0" = torch.ops.aten.full.default([2000, 128], 0, dtype = torch.float32, layout = torch.strided, device = device(type='cuda', index=0), pin_memory = False)
	        index_put_5: "f32[2000, 128][128, 1]cuda:0" = torch.ops.aten.index_put.default(full_default_10, [remainder], where_4, True);  full_default_10 = remainder = where_4 = None
	        return (None, index_put_5, None, None, None, None, None, add_5, index_put_2, sum_3, index_put_1)
	        
V0303 09:09:42.307215 12578 torch/_dynamo/utils.py:953] {"chromium_event": {}, "frame_id": 1, "frame_compile_id": 0, "attempt": 1, "has_payload": "23e2817c86ea9789ad0a5c12bfd7f569"}
	{
	"name": "compile_fx.<locals>.fw_compiler_base",
	"ts": 1740992982306863.2,
	"args": null,
	"ph": "B",
	"cat": "dynamo_timed",
	"tid": 0,
	"pid": 0
	}
V0303 09:09:42.307573 12578 torch/_dynamo/utils.py:953] {"chromium_event": {}, "frame_id": 1, "frame_compile_id": 0, "attempt": 1, "has_payload": "042475060b51573c32cebd497b9d928f"}
	{
	"name": "compile_fx_inner",
	"ts": 1740992982307469.8,
	"args": null,
	"ph": "B",
	"cat": "dynamo_timed",
	"tid": 0,
	"pid": 0
	}
V0303 09:09:42.307747 12578 torch/_dynamo/utils.py:953] {"chromium_event": {}, "frame_id": 1, "frame_compile_id": 0, "attempt": 1, "has_payload": "9ee3f0dc2b5d91b7461ab2e211700e3a"}
	{
	"name": "inductor_compile",
	"ts": 1740992982307469.8,
	"args": null,
	"ph": "B",
	"cat": "dynamo_timed",
	"tid": 0,
	"pid": 0
	}
V0303 09:09:42.775799 12578 torch/_inductor/compile_fx.py:742] {"artifact": {"name": "fx_graph_runnable", "encoding": "string"}, "frame_id": 1, "frame_compile_id": 0, "attempt": 1, "has_payload": "5b132946b1344c0c5cb14317f57e3ac1"}
	
	import torch
	from torch import tensor, device
	import torch.fx as fx
	from torch._dynamo.testing import rand_strided
	from math import inf
	import torch._inductor.inductor_prims
	
	import torch._dynamo.config
	import torch._inductor.config
	import torch._functorch.config
	import torch.fx.experimental._config
	torch._dynamo.config.suppress_errors = True
	
	torch._functorch.config.unlift_effect_tokens = True
	
	
	
	isolate_fails_code_str = None
	
	
	
	# torch version: 2.5.1+cu124
	# torch cuda version: 12.4
	# torch git version: a8d6afb511a69687bbb2b7e88a3cf67917e1697e
	
	
	# CUDA Info: 
	# nvcc: NVIDIA (R) Cuda compiler driver 
	# Copyright (c) 2005-2024 NVIDIA Corporation 
	# Built on Thu_Mar_28_02:18:24_PDT_2024 
	# Cuda compilation tools, release 12.4, V12.4.131 
	# Build cuda_12.4.r12.4/compiler.34097967_0 
	
	# GPU Hardware Info: 
	# NVIDIA L4 : 1 
	
	
	from torch.nn import *
	class Repro(torch.nn.Module):
	    def __init__(self) -> None:
	        super().__init__()
	
	    
	    
	    def forward(self, primals_1, primals_2, primals_3, primals_4, primals_5, primals_6, primals_7, primals_8, primals_9, primals_10, primals_11):
	        remainder = torch.ops.aten.remainder.Scalar(primals_1, 2000);  primals_1 = None
	        embedding = torch.ops.aten.embedding.default(primals_2, remainder);  primals_2 = None
	        mul = torch.ops.aten.mul.Tensor(primals_3, 256);  primals_3 = None
	        add = torch.ops.aten.add.Tensor(mul, primals_4);  mul = primals_4 = None
	        bitwise_not = torch.ops.aten.bitwise_not.default(primals_5)
	        full_default = torch.ops.aten.full.default([], 1024, dtype = torch.int64, layout = torch.strided, device = device(type='cpu'), pin_memory = False)
	        index_put = torch.ops.aten.index_put.default(add, [bitwise_not], full_default);  add = bitwise_not = full_default = None
	        mul_1 = torch.ops.aten.mul.Tensor(primals_7, 256)
	        add_1 = torch.ops.aten.add.Tensor(mul_1, primals_6);  mul_1 = primals_6 = None
	        embedding_1 = torch.ops.aten.embedding.default(primals_8, add_1, 1024)
	        embedding_2 = torch.ops.aten.embedding.default(primals_8, index_put, 1024);  primals_8 = None
	        sum_1 = torch.ops.aten.sum.dim_IntList(primals_5, [1]);  primals_5 = None
	        iota = torch.ops.prims.iota.default(80, start = 0, step = 1, dtype = torch.int64, device = device(type='cuda', index=0), requires_grad = False)
	        unsqueeze = torch.ops.aten.unsqueeze.default(iota, 0);  iota = None
	        embedding_3 = torch.ops.aten.embedding.default(primals_9, unsqueeze);  primals_9 = None
	        add_2 = torch.ops.aten.add.Tensor(embedding_3, embedding_2);  embedding_3 = embedding_2 = None
	        cat = torch.ops.aten.cat.default([embedding, add_2], 1);  embedding = add_2 = None
	        repeat = torch.ops.aten.repeat.default(primals_10, [256, 1, 1]);  primals_10 = None
	        embedding_4 = torch.ops.aten.embedding.default(primals_11, primals_7);  primals_11 = None
	        add_3 = torch.ops.aten.add.Tensor(embedding_1, embedding_4);  embedding_1 = embedding_4 = None
	        cat_1 = torch.ops.aten.cat.default([repeat, add_3], 1);  repeat = add_3 = None
	        add_4 = torch.ops.aten.add.Tensor(sum_1, 1);  sum_1 = None
	        return (cat, add_4, cat_1, primals_7, remainder, index_put, add_1, unsqueeze)
	        
	def load_args(reader):
	    buf0 = reader.storage(None, 2048, device=device(type='cuda', index=0), dtype_hint=torch.int64)
	    reader.tensor(buf0, (256, 1), dtype=torch.int64, is_leaf=True)  # primals_1
	    buf1 = reader.storage(None, 1024000, device=device(type='cuda', index=0))
	    reader.tensor(buf1, (2000, 128), is_leaf=True)  # primals_2
	    buf2 = reader.storage(None, 163840, device=device(type='cuda', index=0), dtype_hint=torch.int64)
	    reader.tensor(buf2, (256, 80), dtype=torch.int64, is_leaf=True)  # primals_3
	    buf3 = reader.storage(None, 163840, device=device(type='cuda', index=0), dtype_hint=torch.int64)
	    reader.tensor(buf3, (256, 80), dtype=torch.int64, is_leaf=True)  # primals_4
	    buf4 = reader.storage(None, 20480, device=device(type='cuda', index=0), dtype_hint=torch.bool)
	    reader.tensor(buf4, (256, 80), dtype=torch.bool, is_leaf=True)  # primals_5
	    buf5 = reader.storage(None, 8192, device=device(type='cuda', index=0), dtype_hint=torch.int64)
	    reader.tensor(buf5, (256, 4), dtype=torch.int64, is_leaf=True)  # primals_6
	    buf6 = reader.storage(None, 8192, device=device(type='cuda', index=0), dtype_hint=torch.int64)
	    reader.tensor(buf6, (256, 4), dtype=torch.int64, is_leaf=True)  # primals_7
	    buf7 = reader.storage(None, 524800, device=device(type='cuda', index=0))
	    reader.tensor(buf7, (1025, 128), is_leaf=True)  # primals_8
	    buf8 = reader.storage(None, 40960, device=device(type='cuda', index=0))
	    reader.tensor(buf8, (80, 128), is_leaf=True)  # primals_9
	    buf9 = reader.storage(None, 512, device=device(type='cuda', index=0))
	    reader.tensor(buf9, (128,), is_leaf=True)  # primals_10
	    buf10 = reader.storage(None, 2048, device=device(type='cuda', index=0))
	    reader.tensor(buf10, (4, 128), is_leaf=True)  # primals_11
	load_args._version = 0
	mod = Repro()
	if __name__ == '__main__':
	    from torch._dynamo.repro.after_aot import run_repro
	    with torch.no_grad():
	        run_repro(mod, load_args, accuracy=False, command='run', save_dir=None, tracing_mode='real', check_str=None)
	        # To run it separately, do 
	        # mod, args = run_repro(mod, load_args, accuracy=False, command='get_args', save_dir=None, tracing_mode='real', check_str=None)
	        # mod(*args)
V0303 09:09:42.807964 12578 torch/_inductor/compile_fx.py:801] {"inductor_post_grad_graph": {}, "frame_id": 1, "frame_compile_id": 0, "attempt": 1, "has_payload": "2c6d9f1e765451ef04786b906379bf98"}
	class GraphModule(torch.nn.Module):
	    def forward(self, primals_1: "i64[256, 1][1, 1]cuda:0", primals_2: "f32[2000, 128][128, 1]cuda:0", primals_3: "i64[256, 80][80, 1]cuda:0", primals_4: "i64[256, 80][80, 1]cuda:0", primals_5: "b8[256, 80][80, 1]cuda:0", primals_6: "i64[256, 4][4, 1]cuda:0", primals_7: "i64[256, 4][4, 1]cuda:0", primals_8: "f32[1025, 128][128, 1]cuda:0", primals_9: "f32[80, 128][128, 1]cuda:0", primals_10: "f32[128][1]cuda:0", primals_11: "f32[4, 128][128, 1]cuda:0"):
	         # File: /home/ec2-user/code/RQ-VAE-Recommender/modules/embedding/id_embedder.py:51 in forward, code: hashed_indices = x % self.num_buckets
	        remainder: "i64[256, 1][1, 1]cuda:0" = torch.ops.aten.remainder.Scalar(primals_1, 2000);  primals_1 = None
	        
	         # File: /home/ec2-user/code/RQ-VAE-Recommender/modules/embedding/id_embedder.py:53 in forward, code: return self.emb(hashed_indices)
	        embedding: "f32[256, 1, 128][128, 128, 1]cuda:0" = torch.ops.aten.embedding.default(primals_2, remainder);  primals_2 = None
	        
	         # File: /home/ec2-user/code/RQ-VAE-Recommender/modules/embedding/id_embedder.py:29 in forward, code: sem_ids = batch.token_type_ids*self.num_embeddings + batch.sem_ids
	        mul: "i64[256, 80][80, 1]cuda:0" = torch.ops.aten.mul.Tensor(primals_3, 256);  primals_3 = None
	        add: "i64[256, 80][80, 1]cuda:0" = torch.ops.aten.add.Tensor(mul, primals_4);  mul = primals_4 = None
	        
	         # File: /home/ec2-user/code/RQ-VAE-Recommender/modules/embedding/id_embedder.py:30 in forward, code: sem_ids[~batch.seq_mask] = self.padding_idx
	        bitwise_not: "b8[256, 80][80, 1]cuda:0" = torch.ops.aten.bitwise_not.default(primals_5)
	        full_default: "i64[][]cpu" = torch.ops.aten.full.default([], 1024, dtype = torch.int64, layout = torch.strided, device = device(type='cpu'), pin_memory = False)
	        index_put: "i64[256, 80][80, 1]cuda:0" = torch.ops.aten.index_put_.default(add, [bitwise_not], full_default);  add = bitwise_not = full_default = None
	        
	         # File: /home/ec2-user/code/RQ-VAE-Recommender/modules/embedding/id_embedder.py:33 in forward, code: sem_ids_fut = batch.token_type_ids_fut*self.num_embeddings + batch.sem_ids_fut
	        mul_1: "i64[256, 4][4, 1]cuda:0" = torch.ops.aten.mul.Tensor(primals_7, 256)
	        add_1: "i64[256, 4][4, 1]cuda:0" = torch.ops.aten.add.Tensor(mul_1, primals_6);  mul_1 = primals_6 = None
	        
	         # File: /home/ec2-user/code/RQ-VAE-Recommender/modules/embedding/id_embedder.py:34 in forward, code: sem_ids_fut = self.emb(sem_ids_fut)
	        embedding_1: "f32[256, 4, 128][512, 128, 1]cuda:0" = torch.ops.aten.embedding.default(primals_8, add_1, 1024)
	        
	         # File: /home/ec2-user/code/RQ-VAE-Recommender/modules/embedding/id_embedder.py:38 in forward, code: seq=self.emb(sem_ids),
	        embedding_2: "f32[256, 80, 128][10240, 128, 1]cuda:0" = torch.ops.aten.embedding.default(primals_8, index_put, 1024);  primals_8 = None
	        
	         # File: /home/ec2-user/code/RQ-VAE-Recommender/modules/model.py:292 in _predict, code: seq_lengths = batch.seq_mask.sum(axis=1)
	        sum_1: "i64[256][1]cuda:0" = torch.ops.aten.sum.dim_IntList(primals_5, [1]);  primals_5 = None
	        
	         # File: /home/ec2-user/code/RQ-VAE-Recommender/modules/model.py:299 in _predict, code: pos = torch.arange(N, device=sem_ids_emb.device).unsqueeze(0)
	        iota: "i64[80][1]cuda:0" = torch.ops.prims.iota.default(80, start = 0, step = 1, dtype = torch.int64, device = device(type='cuda', index=0), requires_grad = False)
	        unsqueeze: "i64[1, 80][80, 1]cuda:0" = torch.ops.aten.unsqueeze.default(iota, 0);  iota = None
	        
	         # File: /home/ec2-user/code/RQ-VAE-Recommender/modules/model.py:300 in _predict, code: wpe = self.wpe(pos)
	        embedding_3: "f32[1, 80, 128][10240, 128, 1]cuda:0" = torch.ops.aten.embedding.default(primals_9, unsqueeze);  primals_9 = None
	        
	         # File: /home/ec2-user/code/RQ-VAE-Recommender/modules/model.py:302 in _predict, code: input_embedding = torch.cat([user_emb, wpe + sem_ids_emb], axis=1)
	        add_2: "f32[256, 80, 128][10240, 128, 1]cuda:0" = torch.ops.aten.add.Tensor(embedding_3, embedding_2);  embedding_3 = embedding_2 = None
	        cat: "f32[256, 81, 128][10368, 128, 1]cuda:0" = torch.ops.aten.cat.default([embedding, add_2], 1);  embedding = add_2 = None
	        
	         # File: /home/ec2-user/code/RQ-VAE-Recommender/modules/model.py:303 in _predict, code: input_embedding_fut = self.bos_emb.repeat(B, 1, 1)
	        repeat: "f32[256, 1, 128][128, 128, 1]cuda:0" = torch.ops.aten.repeat.default(primals_10, [256, 1, 1]);  primals_10 = None
	        
	         # File: /home/ec2-user/code/RQ-VAE-Recommender/modules/model.py:305 in _predict, code: tte_fut = self.tte(batch.token_type_ids_fut)
	        embedding_4: "f32[256, 4, 128][512, 128, 1]cuda:0" = torch.ops.aten.embedding.default(primals_11, primals_7);  primals_11 = None
	        
	         # File: /home/ec2-user/code/RQ-VAE-Recommender/modules/model.py:308 in _predict, code: sem_ids_emb_fut + tte_fut
	        add_3: "f32[256, 4, 128][512, 128, 1]cuda:0" = torch.ops.aten.add.Tensor(embedding_1, embedding_4);  embedding_1 = embedding_4 = None
	        
	         # File: /home/ec2-user/code/RQ-VAE-Recommender/modules/model.py:306 in _predict, code: input_embedding_fut = torch.cat([
	        cat_1: "f32[256, 5, 128][640, 128, 1]cuda:0" = torch.ops.aten.cat.default([repeat, add_3], 1);  repeat = add_3 = None
	        
	         # File: /home/ec2-user/code/RQ-VAE-Recommender/modules/model.py:313 in _predict, code: input_embedding = padded_to_jagged_tensor(input_embedding, lengths=seq_lengths+1)
	        add_4: "i64[256][1]cuda:0" = torch.ops.aten.add.Tensor(sum_1, 1);  sum_1 = None
	        return (cat, add_4, cat_1, primals_7, remainder, index_put, add_1, unsqueeze)
	        
V0303 09:09:42.812829 12578 torch/_dynamo/utils.py:953] {"chromium_event": {}, "frame_id": 1, "frame_compile_id": 0, "attempt": 1, "has_payload": "f51d1e312f84c685c3c62ca63bc530e0"}
	{
	"name": "GraphLowering.run",
	"ts": 1740992982812696.0,
	"args": null,
	"ph": "B",
	"cat": "dynamo_timed",
	"tid": 0,
	"pid": 0
	}
V0303 09:09:42.859790 12578 torch/_dynamo/utils.py:953] {"chromium_event": {}, "frame_id": 1, "frame_compile_id": 0, "attempt": 1, "has_payload": "4c40e28e0418d3061fa217cd9f2b13c4"}
	{
	"name": "GraphLowering.run",
	"ts": 1740992982859714.8,
	"args": {
	"cache_stats": {
	"fxgraph_cache_hit": 0,
	"fxgraph_cache_miss": 1,
	"fxgraph_cache_bypass": 0
	}
	},
	"ph": "E",
	"cat": "dynamo_timed",
	"tid": 0,
	"pid": 0
	}
V0303 09:09:42.860205 12578 torch/_dynamo/utils.py:953] {"chromium_event": {}, "frame_id": 1, "frame_compile_id": 0, "attempt": 1, "has_payload": "c82c13722196896accb96b440d56932e"}
	{
	"name": "GraphLowering.compile_to_module",
	"ts": 1740992982860133.8,
	"args": null,
	"ph": "B",
	"cat": "dynamo_timed",
	"tid": 0,
	"pid": 0
	}
V0303 09:09:42.860391 12578 torch/_dynamo/utils.py:953] {"chromium_event": {}, "frame_id": 1, "frame_compile_id": 0, "attempt": 1, "has_payload": "cce76d6df909357b94061828774298d1"}
	{
	"name": "code_gen",
	"ts": 1740992982860133.8,
	"args": null,
	"ph": "B",
	"cat": "dynamo_timed",
	"tid": 0,
	"pid": 0
	}
V0303 09:09:42.862417 12578 torch/_dynamo/utils.py:953] {"chromium_event": {}, "frame_id": 1, "frame_compile_id": 0, "attempt": 1, "has_payload": "029a40322d65fc5f820f953f9d9df831"}
	{
	"name": "Scheduler.__init__",
	"ts": 1740992982862347.0,
	"args": null,
	"ph": "B",
	"cat": "dynamo_timed",
	"tid": 0,
	"pid": 0
	}
V0303 09:09:42.922939 12578 torch/_dynamo/utils.py:953] {"chromium_event": {}, "frame_id": 1, "frame_compile_id": 0, "attempt": 1, "has_payload": "fd2a0ba6d6fcec945db2a8e1d397443b"}
	{
	"name": "Scheduler.__init__",
	"ts": 1740992982922887.2,
	"args": {
	"cache_stats": {
	"fxgraph_cache_hit": 0,
	"fxgraph_cache_miss": 1,
	"fxgraph_cache_bypass": 0
	}
	},
	"ph": "E",
	"cat": "dynamo_timed",
	"tid": 0,
	"pid": 0
	}
V0303 09:09:42.923192 12578 torch/_dynamo/utils.py:953] {"chromium_event": {}, "frame_id": 1, "frame_compile_id": 0, "attempt": 1, "has_payload": "b40398c0d402fced879bdbcf899a70a8"}
	{
	"name": "Scheduler.codegen",
	"ts": 1740992982923127.8,
	"args": null,
	"ph": "B",
	"cat": "dynamo_timed",
	"tid": 0,
	"pid": 0
	}
V0303 09:09:43.082509 12578 torch/_dynamo/utils.py:953] {"chromium_event": {}, "frame_id": 1, "frame_compile_id": 0, "attempt": 1, "has_payload": "7603972a3791b7d5821ae336c4272f8a"}
	{
	"name": "Scheduler.codegen",
	"ts": 1740992983082249.0,
	"args": {
	"cache_stats": {
	"fxgraph_cache_hit": 0,
	"fxgraph_cache_miss": 1,
	"fxgraph_cache_bypass": 0
	}
	},
	"ph": "E",
	"cat": "dynamo_timed",
	"tid": 0,
	"pid": 0
	}
V0303 09:09:43.083088 12578 torch/_dynamo/utils.py:953] {"chromium_event": {}, "frame_id": 1, "frame_compile_id": 0, "attempt": 1, "has_payload": "06422f9246e0992bffbc54905b735ad0"}
	{
	"name": "code_gen",
	"ts": 1740992983083029.2,
	"args": {
	"cache_stats": {
	"fxgraph_cache_hit": 0,
	"fxgraph_cache_miss": 1,
	"fxgraph_cache_bypass": 0
	}
	},
	"ph": "E",
	"cat": "dynamo_timed",
	"tid": 0,
	"pid": 0
	}
V0303 09:09:43.083307 12578 torch/_dynamo/utils.py:953] {"chromium_event": {}, "frame_id": 1, "frame_compile_id": 0, "attempt": 1, "has_payload": "9846363f8ba26bb6b2c9a6adc8905b64"}
	{
	"name": "GraphLowering.compile_to_module",
	"ts": 1740992983083261.0,
	"args": {
	"cache_stats": {
	"fxgraph_cache_hit": 0,
	"fxgraph_cache_miss": 1,
	"fxgraph_cache_bypass": 0
	}
	},
	"ph": "E",
	"cat": "dynamo_timed",
	"tid": 0,
	"pid": 0
	}
V0303 09:09:43.084056 12578 torch/_dynamo/utils.py:953] {"chromium_event": {}, "frame_id": 1, "frame_compile_id": 0, "attempt": 1, "has_payload": "7374f386635911a379e43be9dc3a96d3"}
	{
	"name": "inductor_compile",
	"ts": 1740992983084005.0,
	"args": {
	"cache_stats": {
	"fxgraph_cache_hit": 0,
	"fxgraph_cache_miss": 1,
	"fxgraph_cache_bypass": 0
	}
	},
	"ph": "E",
	"cat": "dynamo_timed",
	"tid": 0,
	"pid": 0
	}
V0303 09:09:43.084266 12578 torch/_dynamo/utils.py:953] {"chromium_event": {}, "frame_id": 1, "frame_compile_id": 0, "attempt": 1, "has_payload": "5bc1009f1e5d1be1ddf7a20a5938d3c9"}
	{
	"name": "compile_fx_inner",
	"ts": 1740992983084221.5,
	"args": {
	"cache_stats": {
	"fxgraph_cache_hit": 0,
	"fxgraph_cache_miss": 1,
	"fxgraph_cache_bypass": 0
	}
	},
	"ph": "E",
	"cat": "dynamo_timed",
	"tid": 0,
	"pid": 0
	}
V0303 09:09:43.085133 12578 torch/_dynamo/utils.py:953] {"chromium_event": {}, "frame_id": 1, "frame_compile_id": 0, "attempt": 1, "has_payload": "fcec1164fb1b3468624d3cb4301b293b"}
	{
	"name": "compile_fx.<locals>.fw_compiler_base",
	"ts": 1740992983085080.8,
	"args": {
	"cache_stats": {
	"fxgraph_cache_hit": 0,
	"fxgraph_cache_miss": 1,
	"fxgraph_cache_bypass": 0
	}
	},
	"ph": "E",
	"cat": "dynamo_timed",
	"tid": 0,
	"pid": 0
	}
V0303 09:09:43.088232 12578 torch/_dynamo/utils.py:953] {"chromium_event": {}, "frame_id": 1, "frame_compile_id": 0, "attempt": 1, "has_payload": "a51e6cc574d1564e8e15bea5d77d8e99"}
	{
	"name": "create_aot_dispatcher_function",
	"ts": 1740992983088177.2,
	"args": {
	"cache_stats": {
	"fxgraph_cache_hit": 0,
	"fxgraph_cache_miss": 1,
	"fxgraph_cache_bypass": 0
	}
	},
	"ph": "E",
	"cat": "dynamo_timed",
	"tid": 0,
	"pid": 0
	}
V0303 09:09:43.088634 12578 torch/_dynamo/utils.py:953] {"chromium_event": {}, "frame_id": 1, "frame_compile_id": 0, "attempt": 1, "has_payload": "d9ca695d3da7610fc86489c1c1bfe783"}
	{
	"name": "backend_compile",
	"ts": 1740992983088587.5,
	"args": {
	"cache_stats": {
	"fxgraph_cache_hit": 0,
	"fxgraph_cache_miss": 1,
	"fxgraph_cache_bypass": 0
	}
	},
	"ph": "E",
	"cat": "dynamo_timed",
	"tid": 0,
	"pid": 0
	}
V0303 09:09:43.088829 12578 torch/_dynamo/utils.py:953] {"chromium_event": {}, "frame_id": 1, "frame_compile_id": 0, "attempt": 1, "has_payload": "abad16c77fc569043231dfa716b9a8ab"}
	{
	"name": "OutputGraph.call_user_compiler",
	"ts": 1740992983088784.5,
	"args": {
	"cache_stats": {
	"fxgraph_cache_hit": 0,
	"fxgraph_cache_miss": 1,
	"fxgraph_cache_bypass": 0
	}
	},
	"ph": "E",
	"cat": "dynamo_timed",
	"tid": 0,
	"pid": 0
	}
V0303 09:09:43.089620 12578 torch/_dynamo/utils.py:953] {"chromium_event": {}, "frame_id": 1, "frame_compile_id": 0, "attempt": 1, "has_payload": "cee9fefa8bbeea351932afa5e8e25829"}
	{
	"name": "entire_frame_compile",
	"ts": 1740992983089570.2,
	"args": {
	"cache_stats": {
	"fxgraph_cache_hit": 0,
	"fxgraph_cache_miss": 1,
	"fxgraph_cache_bypass": 0
	}
	},
	"ph": "E",
	"cat": "dynamo_timed",
	"tid": 0,
	"pid": 0
	}
V0303 09:09:43.089817 12578 torch/_dynamo/utils.py:953] {"chromium_event": {}, "frame_id": 1, "frame_compile_id": 0, "attempt": 1, "has_payload": "6826df1bfe09a4616007d3460e7ae4c4"}
	{
	"name": "_compile.compile_inner",
	"ts": 1740992983089774.8,
	"args": {
	"cache_stats": {
	"fxgraph_cache_hit": 0,
	"fxgraph_cache_miss": 1,
	"fxgraph_cache_bypass": 0
	}
	},
	"ph": "E",
	"cat": "dynamo_timed",
	"tid": 0,
	"pid": 0
	}
V0303 09:09:43.090175 12578 torch/_dynamo/utils.py:810] {"compilation_metrics": {"compile_id": "1/0", "frame_key": "2", "co_name": "_predict", "co_filename": "/home/ec2-user/code/RQ-VAE-Recommender/modules/model.py", "co_firstlineno": 288, "cache_size": 0, "accumulated_cache_size": 0, "guard_count": null, "shape_env_guard_count": null, "graph_op_count": null, "graph_node_count": null, "graph_input_count": null, "start_time": 1740992981.8855422, "entire_frame_compile_time_s": null, "backend_compile_time_s": null, "inductor_compile_time_s": null, "code_gen_time_s": null, "fail_type": "BackendCompilerFailed", "fail_reason": "backend='inductor' raised:\nCalledProcessError: Command '['/usr/bin/gcc', '/tmp/tmpsodhu1ka/main.c', '-O3', '-shared', '-fPIC', '-o', '/tmp/tmpsodhu1ka/cuda_utils.cpython-39-x86_64-linux-gnu.so', '-lcuda', '-L/home/ec2-user/.local/lib/python3.9/site-packages/triton/backends/nvidia/lib', '-L/lib64', '-L/lib', '-I/home/ec2-user/.local/lib/python3.9/site-packages/triton/backends/nvidia/include', '-I/tmp/tmpsodhu1ka', '-I/usr/include/python3.9']' returned non-zero exit status 1.", "fail_user_frame_filename": null, "fail_user_frame_lineno": null, "non_compliant_ops": [], "compliant_custom_ops": [], "restart_reasons": [], "dynamo_time_before_restart_s": 1.2044765949249268, "has_guarded_code": false, "possibly_missed_reinplacing_opportunities": null}, "frame_id": 1, "frame_compile_id": 0, "attempt": 1}
V0303 09:09:43.095926 12578 torch/_logging/structured.py:22] {"str": ["/home/ec2-user/code/RQ-VAE-Recommender/modules/embedding/id_embedder.py", 6]}
V0303 09:09:43.096162 12578 torch/_dynamo/convert_frame.py:894] {"dynamo_start": {"stack": [{"line": 296, "name": "<module>", "filename": 1}, {"line": 1582, "name": "gin_wrapper", "filename": 2}, {"line": 208, "name": "train", "filename": 1}, {"line": 1736, "name": "_wrapped_call_impl", "filename": 3}, {"line": 1747, "name": "_call_impl", "filename": 3}, {"line": 465, "name": "_fn", "filename": 5}, {"line": 426, "name": "forward", "filename": 4}, {"line": 289, "name": "_predict", "filename": 4}, {"line": 1736, "name": "_wrapped_call_impl", "filename": 3}, {"line": 50, "name": "forward", "filename": 6}]}, "frame_id": 2, "frame_compile_id": 0, "attempt": 0}
V0303 09:09:43.096499 12578 torch/_dynamo/utils.py:953] {"chromium_event": {}, "frame_id": 2, "frame_compile_id": 0, "attempt": 0, "has_payload": "51f0226ef2c237c9abd37f5f0ff27cf7"}
	{
	"name": "_compile.compile_inner",
	"ts": 1740992983096390.5,
	"args": null,
	"ph": "B",
	"cat": "dynamo_timed",
	"tid": 0,
	"pid": 0
	}
V0303 09:09:43.096747 12578 torch/_dynamo/utils.py:953] {"chromium_event": {}, "frame_id": 2, "frame_compile_id": 0, "attempt": 0, "has_payload": "bb5e9478c78a90cc3cc479bb1b7bd7ba"}
	{
	"name": "entire_frame_compile",
	"ts": 1740992983096390.5,
	"args": null,
	"ph": "B",
	"cat": "dynamo_timed",
	"tid": 0,
	"pid": 0
	}
V0303 09:09:43.099513 12578 torch/_subclasses/meta_utils.py:204] {"describe_storage": {"id": 0, "describer_id": 8, "size": 2048}, "frame_id": 2, "frame_compile_id": 0, "attempt": 0}
V0303 09:09:43.099896 12578 torch/_subclasses/meta_utils.py:417] {"describe_tensor": {"id": 0, "ndim": 2, "dtype": "torch.int64", "device": "device(type='cuda', index=0)", "size": [256, 1], "is_leaf": true, "stride": [1, 1], "storage": 0, "view_func": "<built-in method _view_func_unsafe of Tensor object at 0x7fba01ad5d60>", "describer_id": 8}, "frame_id": 2, "frame_compile_id": 0, "attempt": 0}
V0303 09:09:43.100133 12578 torch/_subclasses/meta_utils.py:1640] {"describe_source": {"describer_id": 8, "id": 0, "source": "L['x']"}, "frame_id": 2, "frame_compile_id": 0, "attempt": 0}
V0303 09:09:43.107470 12578 torch/_subclasses/meta_utils.py:204] {"describe_storage": {"id": 1, "describer_id": 8, "size": 1024000}, "frame_id": 2, "frame_compile_id": 0, "attempt": 0}
V0303 09:09:43.107838 12578 torch/_subclasses/meta_utils.py:417] {"describe_tensor": {"id": 1, "ndim": 2, "dtype": "torch.float32", "device": "device(type='cuda', index=0)", "size": [2000, 128], "is_leaf": true, "requires_grad": true, "is_parameter": true, "stride": [128, 1], "storage": 1, "view_func": "<built-in method _view_func_unsafe of Parameter object at 0x7fba18b0aa40>", "describer_id": 8}, "frame_id": 2, "frame_compile_id": 0, "attempt": 0}
V0303 09:09:43.108009 12578 torch/_subclasses/meta_utils.py:1640] {"describe_source": {"describer_id": 8, "id": 1, "source": "L['self']._modules['emb']._parameters['weight']"}, "frame_id": 2, "frame_compile_id": 0, "attempt": 0}
V0303 09:09:43.111245 12578 torch/_dynamo/output_graph.py:1346] {"dynamo_output_graph": {"sizes": {"l_x_": [256, 1], "l_self_modules_emb_parameters_weight_": [2000, 128], "hashed_indices": [256, 1], "embedding": [256, 1, 128]}}, "frame_id": 2, "frame_compile_id": 0, "attempt": 0, "has_payload": "ffa731ca0fa006879a91b44c9fae9498"}
	class GraphModule(torch.nn.Module):
	    def forward(self, L_x_: "i64[256, 1][1, 1]cuda:0", L_self_modules_emb_parameters_weight_: "f32[2000, 128][128, 1]cuda:0"):
	        l_x_ = L_x_
	        l_self_modules_emb_parameters_weight_ = L_self_modules_emb_parameters_weight_
	        
	         # File: /home/ec2-user/code/RQ-VAE-Recommender/modules/embedding/id_embedder.py:51 in forward, code: hashed_indices = x % self.num_buckets
	        hashed_indices: "i64[256, 1][1, 1]cuda:0" = l_x_ % 2000;  l_x_ = None
	        
	         # File: /home/ec2-user/code/RQ-VAE-Recommender/modules/embedding/id_embedder.py:53 in forward, code: return self.emb(hashed_indices)
	        embedding: "f32[256, 1, 128][128, 128, 1]cuda:0" = torch.nn.functional.embedding(hashed_indices, l_self_modules_emb_parameters_weight_, None, None, 2.0, False, False);  hashed_indices = l_self_modules_emb_parameters_weight_ = None
	        return (embedding,)
	        
V0303 09:09:43.111708 12578 torch/_dynamo/utils.py:953] {"chromium_event": {}, "frame_id": 2, "frame_compile_id": 0, "attempt": 0, "has_payload": "e8128337de1e460ea704338fa81bbb5f"}
	{
	"name": "OutputGraph.call_user_compiler",
	"ts": 1740992983111637.5,
	"args": null,
	"ph": "B",
	"cat": "dynamo_timed",
	"tid": 0,
	"pid": 0
	}
V0303 09:09:43.111894 12578 torch/_dynamo/utils.py:953] {"chromium_event": {}, "frame_id": 2, "frame_compile_id": 0, "attempt": 0, "has_payload": "7e9442b522aeb9a2fb18b3977112288f"}
	{
	"name": "backend_compile",
	"ts": 1740992983111637.5,
	"args": null,
	"ph": "B",
	"cat": "dynamo_timed",
	"tid": 0,
	"pid": 0
	}
V0303 09:09:43.113908 12578 torch/_dynamo/utils.py:953] {"chromium_event": {}, "frame_id": 2, "frame_compile_id": 0, "attempt": 0, "has_payload": "331b46bc4332a26dedebe9d5c63563ae"}
	{
	"name": "create_aot_dispatcher_function",
	"ts": 1740992983113845.0,
	"args": null,
	"ph": "B",
	"cat": "dynamo_timed",
	"tid": 0,
	"pid": 0
	}
V0303 09:09:43.133847 12578 torch/_functorch/_aot_autograd/jit_compile_runtime_wrappers.py:352] {"aot_joint_graph": {}, "frame_id": 2, "frame_compile_id": 0, "attempt": 0, "has_payload": "d03fff73f4fe3dbf0a966592627316d0"}
	class joint_helper(torch.nn.Module):
	    def forward(self, primals, tangents):
	        primals_1: "i64[256, 1][1, 1]cuda:0"; primals_2: "f32[2000, 128][128, 1]cuda:0"; tangents_1: "f32[256, 1, 128][128, 128, 1]cuda:0"; 
	    
	        primals_1, primals_2, tangents_1, = fx_pytree.tree_flatten_spec([primals, tangents], self._in_spec)
	         # File: /home/ec2-user/code/RQ-VAE-Recommender/modules/embedding/id_embedder.py:51 in forward, code: hashed_indices = x % self.num_buckets
	        remainder: "i64[256, 1][1, 1]cuda:0" = torch.ops.aten.remainder.Scalar(primals_1, 2000);  primals_1 = None
	        
	         # File: /home/ec2-user/code/RQ-VAE-Recommender/modules/embedding/id_embedder.py:53 in forward, code: return self.emb(hashed_indices)
	        embedding: "f32[256, 1, 128][128, 128, 1]cuda:0" = torch.ops.aten.embedding.default(primals_2, remainder);  primals_2 = None
	        eq: "b8[256, 1][1, 1]cuda:0" = torch.ops.aten.eq.Scalar(remainder, -1)
	        unsqueeze: "b8[256, 1, 1][1, 1, 1]cuda:0" = torch.ops.aten.unsqueeze.default(eq, -1);  eq = None
	        scalar_tensor: "f32[][]cuda:0" = torch.ops.aten.scalar_tensor.default(0.0, dtype = torch.float32, layout = torch.strided, device = device(type='cuda', index=0))
	        where: "f32[256, 1, 128][128, 128, 1]cuda:0" = torch.ops.aten.where.self(unsqueeze, scalar_tensor, tangents_1);  unsqueeze = scalar_tensor = tangents_1 = None
	        full: "f32[2000, 128][128, 1]cuda:0" = torch.ops.aten.full.default([2000, 128], 0, dtype = torch.float32, layout = torch.strided, device = device(type='cuda', index=0), pin_memory = False)
	        index_put: "f32[2000, 128][128, 1]cuda:0" = torch.ops.aten.index_put.default(full, [remainder], where, True);  full = remainder = where = None
	        return pytree.tree_unflatten([embedding, None, index_put], self._out_spec)
	        
V0303 09:09:43.141827 12578 torch/_functorch/_aot_autograd/jit_compile_runtime_wrappers.py:545] {"aot_forward_graph": {}, "frame_id": 2, "frame_compile_id": 0, "attempt": 0, "has_payload": "7a5f1bc437296a81e20808c77acaaabf"}
	class GraphModule(torch.nn.Module):
	    def forward(self, primals_1: "i64[256, 1][1, 1]cuda:0", primals_2: "f32[2000, 128][128, 1]cuda:0"):
	         # File: /home/ec2-user/code/RQ-VAE-Recommender/modules/embedding/id_embedder.py:51 in forward, code: hashed_indices = x % self.num_buckets
	        remainder: "i64[256, 1][1, 1]cuda:0" = torch.ops.aten.remainder.Scalar(primals_1, 2000);  primals_1 = None
	        
	         # File: /home/ec2-user/code/RQ-VAE-Recommender/modules/embedding/id_embedder.py:53 in forward, code: return self.emb(hashed_indices)
	        embedding: "f32[256, 1, 128][128, 128, 1]cuda:0" = torch.ops.aten.embedding.default(primals_2, remainder);  primals_2 = None
	        return (embedding, remainder)
	        
V0303 09:09:43.142439 12578 torch/_functorch/_aot_autograd/jit_compile_runtime_wrappers.py:551] {"aot_backward_graph": {}, "frame_id": 2, "frame_compile_id": 0, "attempt": 0, "has_payload": "5eba123ee933e9130868829210e162e1"}
	class GraphModule(torch.nn.Module):
	    def forward(self, remainder: "i64[256, 1][1, 1]cuda:0", tangents_1: "f32[256, 1, 128][128, 128, 1]cuda:0"):
	         # File: /home/ec2-user/code/RQ-VAE-Recommender/modules/embedding/id_embedder.py:53 in forward, code: return self.emb(hashed_indices)
	        eq: "b8[256, 1][1, 1]cuda:0" = torch.ops.aten.eq.Scalar(remainder, -1)
	        unsqueeze: "b8[256, 1, 1][1, 1, 1]cuda:0" = torch.ops.aten.unsqueeze.default(eq, -1);  eq = None
	        full_default: "f32[][]cuda:0" = torch.ops.aten.full.default([], 0.0, dtype = torch.float32, layout = torch.strided, device = device(type='cuda', index=0), pin_memory = False)
	        where: "f32[256, 1, 128][128, 128, 1]cuda:0" = torch.ops.aten.where.self(unsqueeze, full_default, tangents_1);  unsqueeze = full_default = tangents_1 = None
	        full_default_1: "f32[2000, 128][128, 1]cuda:0" = torch.ops.aten.full.default([2000, 128], 0, dtype = torch.float32, layout = torch.strided, device = device(type='cuda', index=0), pin_memory = False)
	        index_put: "f32[2000, 128][128, 1]cuda:0" = torch.ops.aten.index_put.default(full_default_1, [remainder], where, True);  full_default_1 = remainder = where = None
	        return (None, index_put)
	        
V0303 09:09:43.142837 12578 torch/_dynamo/utils.py:953] {"chromium_event": {}, "frame_id": 2, "frame_compile_id": 0, "attempt": 0, "has_payload": "102c631ac1b79385156367baec346d18"}
	{
	"name": "compile_fx.<locals>.fw_compiler_base",
	"ts": 1740992983142630.2,
	"args": null,
	"ph": "B",
	"cat": "dynamo_timed",
	"tid": 0,
	"pid": 0
	}
V0303 09:09:43.143124 12578 torch/_dynamo/utils.py:953] {"chromium_event": {}, "frame_id": 2, "frame_compile_id": 0, "attempt": 0, "has_payload": "fc1f80f244a6c58e44bcfd2935bd950b"}
	{
	"name": "compile_fx_inner",
	"ts": 1740992983143064.2,
	"args": null,
	"ph": "B",
	"cat": "dynamo_timed",
	"tid": 0,
	"pid": 0
	}
V0303 09:09:43.143301 12578 torch/_dynamo/utils.py:953] {"chromium_event": {}, "frame_id": 2, "frame_compile_id": 0, "attempt": 0, "has_payload": "f553f7e0073f13960b99549b30809fed"}
	{
	"name": "inductor_compile",
	"ts": 1740992983143064.2,
	"args": null,
	"ph": "B",
	"cat": "dynamo_timed",
	"tid": 0,
	"pid": 0
	}
V0303 09:09:43.148150 12578 torch/_inductor/compile_fx.py:742] {"artifact": {"name": "fx_graph_runnable", "encoding": "string"}, "frame_id": 2, "frame_compile_id": 0, "attempt": 0, "has_payload": "db83a80774da7347fc29e05f6fbfa077"}
	
	import torch
	from torch import tensor, device
	import torch.fx as fx
	from torch._dynamo.testing import rand_strided
	from math import inf
	import torch._inductor.inductor_prims
	
	import torch._dynamo.config
	import torch._inductor.config
	import torch._functorch.config
	import torch.fx.experimental._config
	torch._dynamo.config.suppress_errors = True
	
	torch._functorch.config.unlift_effect_tokens = True
	
	
	
	isolate_fails_code_str = None
	
	
	
	# torch version: 2.5.1+cu124
	# torch cuda version: 12.4
	# torch git version: a8d6afb511a69687bbb2b7e88a3cf67917e1697e
	
	
	# CUDA Info: 
	# nvcc: NVIDIA (R) Cuda compiler driver 
	# Copyright (c) 2005-2024 NVIDIA Corporation 
	# Built on Thu_Mar_28_02:18:24_PDT_2024 
	# Cuda compilation tools, release 12.4, V12.4.131 
	# Build cuda_12.4.r12.4/compiler.34097967_0 
	
	# GPU Hardware Info: 
	# NVIDIA L4 : 1 
	
	
	from torch.nn import *
	class Repro(torch.nn.Module):
	    def __init__(self) -> None:
	        super().__init__()
	
	    
	    
	    def forward(self, primals_1, primals_2):
	        remainder = torch.ops.aten.remainder.Scalar(primals_1, 2000);  primals_1 = None
	        embedding = torch.ops.aten.embedding.default(primals_2, remainder);  primals_2 = None
	        return (embedding, remainder)
	        
	def load_args(reader):
	    buf0 = reader.storage(None, 2048, device=device(type='cuda', index=0), dtype_hint=torch.int64)
	    reader.tensor(buf0, (256, 1), dtype=torch.int64, is_leaf=True)  # primals_1
	    buf1 = reader.storage(None, 1024000, device=device(type='cuda', index=0))
	    reader.tensor(buf1, (2000, 128), is_leaf=True)  # primals_2
	load_args._version = 0
	mod = Repro()
	if __name__ == '__main__':
	    from torch._dynamo.repro.after_aot import run_repro
	    with torch.no_grad():
	        run_repro(mod, load_args, accuracy=False, command='run', save_dir=None, tracing_mode='real', check_str=None)
	        # To run it separately, do 
	        # mod, args = run_repro(mod, load_args, accuracy=False, command='get_args', save_dir=None, tracing_mode='real', check_str=None)
	        # mod(*args)
V0303 09:09:43.150165 12578 torch/_inductor/compile_fx.py:801] {"inductor_post_grad_graph": {}, "frame_id": 2, "frame_compile_id": 0, "attempt": 0, "has_payload": "7a5f1bc437296a81e20808c77acaaabf"}
	class GraphModule(torch.nn.Module):
	    def forward(self, primals_1: "i64[256, 1][1, 1]cuda:0", primals_2: "f32[2000, 128][128, 1]cuda:0"):
	         # File: /home/ec2-user/code/RQ-VAE-Recommender/modules/embedding/id_embedder.py:51 in forward, code: hashed_indices = x % self.num_buckets
	        remainder: "i64[256, 1][1, 1]cuda:0" = torch.ops.aten.remainder.Scalar(primals_1, 2000);  primals_1 = None
	        
	         # File: /home/ec2-user/code/RQ-VAE-Recommender/modules/embedding/id_embedder.py:53 in forward, code: return self.emb(hashed_indices)
	        embedding: "f32[256, 1, 128][128, 128, 1]cuda:0" = torch.ops.aten.embedding.default(primals_2, remainder);  primals_2 = None
	        return (embedding, remainder)
	        
V0303 09:09:43.150698 12578 torch/_dynamo/utils.py:953] {"chromium_event": {}, "frame_id": 2, "frame_compile_id": 0, "attempt": 0, "has_payload": "b744c9d8014467d489fb2f58998fdc1e"}
	{
	"name": "GraphLowering.run",
	"ts": 1740992983150632.2,
	"args": null,
	"ph": "B",
	"cat": "dynamo_timed",
	"tid": 0,
	"pid": 0
	}
V0303 09:09:43.152908 12578 torch/_dynamo/utils.py:953] {"chromium_event": {}, "frame_id": 2, "frame_compile_id": 0, "attempt": 0, "has_payload": "5d07d1bf048d492418fda15284b1b460"}
	{
	"name": "GraphLowering.run",
	"ts": 1740992983152856.8,
	"args": {
	"cache_stats": {
	"fxgraph_cache_hit": 0,
	"fxgraph_cache_miss": 2,
	"fxgraph_cache_bypass": 0
	}
	},
	"ph": "E",
	"cat": "dynamo_timed",
	"tid": 0,
	"pid": 0
	}
V0303 09:09:43.153194 12578 torch/_dynamo/utils.py:953] {"chromium_event": {}, "frame_id": 2, "frame_compile_id": 0, "attempt": 0, "has_payload": "39de706ac244972683d9c49a518d0d10"}
	{
	"name": "GraphLowering.compile_to_module",
	"ts": 1740992983153135.2,
	"args": null,
	"ph": "B",
	"cat": "dynamo_timed",
	"tid": 0,
	"pid": 0
	}
V0303 09:09:43.153459 12578 torch/_dynamo/utils.py:953] {"chromium_event": {}, "frame_id": 2, "frame_compile_id": 0, "attempt": 0, "has_payload": "6b152686048693fb6383ff263c36598b"}
	{
	"name": "code_gen",
	"ts": 1740992983153135.2,
	"args": null,
	"ph": "B",
	"cat": "dynamo_timed",
	"tid": 0,
	"pid": 0
	}
V0303 09:09:43.154159 12578 torch/_dynamo/utils.py:953] {"chromium_event": {}, "frame_id": 2, "frame_compile_id": 0, "attempt": 0, "has_payload": "c46e0ae70c6c888fe72c34b8e202cf7d"}
	{
	"name": "Scheduler.__init__",
	"ts": 1740992983154093.8,
	"args": null,
	"ph": "B",
	"cat": "dynamo_timed",
	"tid": 0,
	"pid": 0
	}
V0303 09:09:43.163681 12578 torch/_dynamo/utils.py:953] {"chromium_event": {}, "frame_id": 2, "frame_compile_id": 0, "attempt": 0, "has_payload": "e880a2d801b94401fa6d32cd60a2eb40"}
	{
	"name": "Scheduler.__init__",
	"ts": 1740992983163632.0,
	"args": {
	"cache_stats": {
	"fxgraph_cache_hit": 0,
	"fxgraph_cache_miss": 2,
	"fxgraph_cache_bypass": 0
	}
	},
	"ph": "E",
	"cat": "dynamo_timed",
	"tid": 0,
	"pid": 0
	}
V0303 09:09:43.163930 12578 torch/_dynamo/utils.py:953] {"chromium_event": {}, "frame_id": 2, "frame_compile_id": 0, "attempt": 0, "has_payload": "9e86c90f4527c35bb76eea2bfa5f4c4d"}
	{
	"name": "Scheduler.codegen",
	"ts": 1740992983163869.5,
	"args": null,
	"ph": "B",
	"cat": "dynamo_timed",
	"tid": 0,
	"pid": 0
	}
V0303 09:09:43.282196 12578 torch/_dynamo/utils.py:953] {"chromium_event": {}, "frame_id": 2, "frame_compile_id": 0, "attempt": 0, "has_payload": "32b1e13e13dd1ad07c850dd922d003be"}
	{
	"name": "Scheduler.codegen",
	"ts": 1740992983281914.5,
	"args": {
	"cache_stats": {
	"fxgraph_cache_hit": 0,
	"fxgraph_cache_miss": 2,
	"fxgraph_cache_bypass": 0
	}
	},
	"ph": "E",
	"cat": "dynamo_timed",
	"tid": 0,
	"pid": 0
	}
V0303 09:09:43.282781 12578 torch/_dynamo/utils.py:953] {"chromium_event": {}, "frame_id": 2, "frame_compile_id": 0, "attempt": 0, "has_payload": "d01b72fe7eb019bf6428276bef88d48a"}
	{
	"name": "code_gen",
	"ts": 1740992983282715.0,
	"args": {
	"cache_stats": {
	"fxgraph_cache_hit": 0,
	"fxgraph_cache_miss": 2,
	"fxgraph_cache_bypass": 0
	}
	},
	"ph": "E",
	"cat": "dynamo_timed",
	"tid": 0,
	"pid": 0
	}
V0303 09:09:43.283259 12578 torch/_dynamo/utils.py:953] {"chromium_event": {}, "frame_id": 2, "frame_compile_id": 0, "attempt": 0, "has_payload": "e69ff09c58e95fcf2584217a85828227"}
	{
	"name": "GraphLowering.compile_to_module",
	"ts": 1740992983282949.0,
	"args": {
	"cache_stats": {
	"fxgraph_cache_hit": 0,
	"fxgraph_cache_miss": 2,
	"fxgraph_cache_bypass": 0
	}
	},
	"ph": "E",
	"cat": "dynamo_timed",
	"tid": 0,
	"pid": 0
	}
V0303 09:09:43.283987 12578 torch/_dynamo/utils.py:953] {"chromium_event": {}, "frame_id": 2, "frame_compile_id": 0, "attempt": 0, "has_payload": "9a13c99c119230bd9edcfe025c780c43"}
	{
	"name": "inductor_compile",
	"ts": 1740992983283934.0,
	"args": {
	"cache_stats": {
	"fxgraph_cache_hit": 0,
	"fxgraph_cache_miss": 2,
	"fxgraph_cache_bypass": 0
	}
	},
	"ph": "E",
	"cat": "dynamo_timed",
	"tid": 0,
	"pid": 0
	}
V0303 09:09:43.284192 12578 torch/_dynamo/utils.py:953] {"chromium_event": {}, "frame_id": 2, "frame_compile_id": 0, "attempt": 0, "has_payload": "f0e8105fb55cfca7d3206b3d86782870"}
	{
	"name": "compile_fx_inner",
	"ts": 1740992983284150.0,
	"args": {
	"cache_stats": {
	"fxgraph_cache_hit": 0,
	"fxgraph_cache_miss": 2,
	"fxgraph_cache_bypass": 0
	}
	},
	"ph": "E",
	"cat": "dynamo_timed",
	"tid": 0,
	"pid": 0
	}
V0303 09:09:43.284960 12578 torch/_dynamo/utils.py:953] {"chromium_event": {}, "frame_id": 2, "frame_compile_id": 0, "attempt": 0, "has_payload": "c5ffb369de41533e3bf37fa972566360"}
	{
	"name": "compile_fx.<locals>.fw_compiler_base",
	"ts": 1740992983284908.5,
	"args": {
	"cache_stats": {
	"fxgraph_cache_hit": 0,
	"fxgraph_cache_miss": 2,
	"fxgraph_cache_bypass": 0
	}
	},
	"ph": "E",
	"cat": "dynamo_timed",
	"tid": 0,
	"pid": 0
	}
V0303 09:09:43.287990 12578 torch/_dynamo/utils.py:953] {"chromium_event": {}, "frame_id": 2, "frame_compile_id": 0, "attempt": 0, "has_payload": "4c8c3d16c58f1d3f5ca863ee8d20d9f5"}
	{
	"name": "create_aot_dispatcher_function",
	"ts": 1740992983287936.0,
	"args": {
	"cache_stats": {
	"fxgraph_cache_hit": 0,
	"fxgraph_cache_miss": 2,
	"fxgraph_cache_bypass": 0
	}
	},
	"ph": "E",
	"cat": "dynamo_timed",
	"tid": 0,
	"pid": 0
	}
V0303 09:09:43.288390 12578 torch/_dynamo/utils.py:953] {"chromium_event": {}, "frame_id": 2, "frame_compile_id": 0, "attempt": 0, "has_payload": "25141df5d631dc5ed4c67e15ba993e0d"}
	{
	"name": "backend_compile",
	"ts": 1740992983288343.5,
	"args": {
	"cache_stats": {
	"fxgraph_cache_hit": 0,
	"fxgraph_cache_miss": 2,
	"fxgraph_cache_bypass": 0
	}
	},
	"ph": "E",
	"cat": "dynamo_timed",
	"tid": 0,
	"pid": 0
	}
V0303 09:09:43.288580 12578 torch/_dynamo/utils.py:953] {"chromium_event": {}, "frame_id": 2, "frame_compile_id": 0, "attempt": 0, "has_payload": "4555b375a35b130a9811e62ba7ff37af"}
	{
	"name": "OutputGraph.call_user_compiler",
	"ts": 1740992983288539.8,
	"args": {
	"cache_stats": {
	"fxgraph_cache_hit": 0,
	"fxgraph_cache_miss": 2,
	"fxgraph_cache_bypass": 0
	}
	},
	"ph": "E",
	"cat": "dynamo_timed",
	"tid": 0,
	"pid": 0
	}
V0303 09:09:43.289216 12578 torch/_dynamo/utils.py:953] {"chromium_event": {}, "frame_id": 2, "frame_compile_id": 0, "attempt": 0, "has_payload": "10ddfbba291e4ca996193bcf075a6f4e"}
	{
	"name": "entire_frame_compile",
	"ts": 1740992983289168.8,
	"args": {
	"cache_stats": {
	"fxgraph_cache_hit": 0,
	"fxgraph_cache_miss": 2,
	"fxgraph_cache_bypass": 0
	}
	},
	"ph": "E",
	"cat": "dynamo_timed",
	"tid": 0,
	"pid": 0
	}
V0303 09:09:43.289411 12578 torch/_dynamo/utils.py:953] {"chromium_event": {}, "frame_id": 2, "frame_compile_id": 0, "attempt": 0, "has_payload": "ab242a89d1a5d6565073a7a0aa72942f"}
	{
	"name": "_compile.compile_inner",
	"ts": 1740992983289369.5,
	"args": {
	"cache_stats": {
	"fxgraph_cache_hit": 0,
	"fxgraph_cache_miss": 2,
	"fxgraph_cache_bypass": 0
	}
	},
	"ph": "E",
	"cat": "dynamo_timed",
	"tid": 0,
	"pid": 0
	}
V0303 09:09:43.289752 12578 torch/_dynamo/utils.py:810] {"compilation_metrics": {"compile_id": "2/0", "frame_key": "3", "co_name": "forward", "co_filename": "/home/ec2-user/code/RQ-VAE-Recommender/modules/embedding/id_embedder.py", "co_firstlineno": 50, "cache_size": 0, "accumulated_cache_size": 0, "guard_count": null, "shape_env_guard_count": null, "graph_op_count": null, "graph_node_count": null, "graph_input_count": null, "start_time": 1740992983.096377, "entire_frame_compile_time_s": null, "backend_compile_time_s": null, "inductor_compile_time_s": null, "code_gen_time_s": null, "fail_type": "BackendCompilerFailed", "fail_reason": "backend='inductor' raised:\nCalledProcessError: Command '['/usr/bin/gcc', '/tmp/tmppna1ys0p/main.c', '-O3', '-shared', '-fPIC', '-o', '/tmp/tmppna1ys0p/cuda_utils.cpython-39-x86_64-linux-gnu.so', '-lcuda', '-L/home/ec2-user/.local/lib/python3.9/site-packages/triton/backends/nvidia/lib', '-L/lib64', '-L/lib', '-I/home/ec2-user/.local/lib/python3.9/site-packages/triton/backends/nvidia/include', '-I/tmp/tmppna1ys0p', '-I/usr/include/python3.9']' returned non-zero exit status 1.", "fail_user_frame_filename": null, "fail_user_frame_lineno": null, "non_compliant_ops": [], "compliant_custom_ops": [], "restart_reasons": [], "dynamo_time_before_restart_s": 0.1932237148284912, "has_guarded_code": false, "possibly_missed_reinplacing_opportunities": null}, "frame_id": 2, "frame_compile_id": 0, "attempt": 0}
V0303 09:09:43.310746 12578 torch/_dynamo/convert_frame.py:894] {"dynamo_start": {"stack": [{"line": 296, "name": "<module>", "filename": 1}, {"line": 1582, "name": "gin_wrapper", "filename": 2}, {"line": 208, "name": "train", "filename": 1}, {"line": 1736, "name": "_wrapped_call_impl", "filename": 3}, {"line": 1747, "name": "_call_impl", "filename": 3}, {"line": 465, "name": "_fn", "filename": 5}, {"line": 426, "name": "forward", "filename": 4}, {"line": 290, "name": "_predict", "filename": 4}, {"line": 1736, "name": "_wrapped_call_impl", "filename": 3}, {"line": 28, "name": "forward", "filename": 6}]}, "frame_id": 3, "frame_compile_id": 0, "attempt": 0}
V0303 09:09:43.311091 12578 torch/_dynamo/utils.py:953] {"chromium_event": {}, "frame_id": 3, "frame_compile_id": 0, "attempt": 0, "has_payload": "7b388b3e7e05398456d3cc8d28b76143"}
	{
	"name": "_compile.compile_inner",
	"ts": 1740992983310987.8,
	"args": null,
	"ph": "B",
	"cat": "dynamo_timed",
	"tid": 0,
	"pid": 0
	}
V0303 09:09:43.311284 12578 torch/_dynamo/utils.py:953] {"chromium_event": {}, "frame_id": 3, "frame_compile_id": 0, "attempt": 0, "has_payload": "6de6f5eecf0e40d63ded247666d4a24b"}
	{
	"name": "entire_frame_compile",
	"ts": 1740992983310987.8,
	"args": null,
	"ph": "B",
	"cat": "dynamo_timed",
	"tid": 0,
	"pid": 0
	}
V0303 09:09:43.313870 12578 torch/_subclasses/meta_utils.py:204] {"describe_storage": {"id": 0, "describer_id": 10, "size": 163840}, "frame_id": 3, "frame_compile_id": 0, "attempt": 0}
V0303 09:09:43.314173 12578 torch/_subclasses/meta_utils.py:417] {"describe_tensor": {"id": 0, "ndim": 2, "dtype": "torch.int64", "device": "device(type='cuda', index=0)", "size": [256, 80], "is_leaf": true, "stride": [80, 1], "storage": 0, "view_func": "<built-in method _view_func_unsafe of Tensor object at 0x7fb9fc4b4180>", "describer_id": 10}, "frame_id": 3, "frame_compile_id": 0, "attempt": 0}
V0303 09:09:43.314334 12578 torch/_subclasses/meta_utils.py:1640] {"describe_source": {"describer_id": 10, "id": 0, "source": "L['batch'][4]"}, "frame_id": 3, "frame_compile_id": 0, "attempt": 0}
V0303 09:09:43.316134 12578 torch/_subclasses/meta_utils.py:204] {"describe_storage": {"id": 1, "describer_id": 10, "size": 163840}, "frame_id": 3, "frame_compile_id": 0, "attempt": 0}
V0303 09:09:43.316448 12578 torch/_subclasses/meta_utils.py:417] {"describe_tensor": {"id": 2, "ndim": 2, "dtype": "torch.int64", "device": "device(type='cuda', index=0)", "size": [5120, 4], "is_leaf": true, "stride": [4, 1], "storage": 1, "view_func": "<built-in method _view_func_unsafe of Tensor object at 0x7fba01ad5db0>", "describer_id": 10}, "frame_id": 3, "frame_compile_id": 0, "attempt": 0}
V0303 09:09:43.316682 12578 torch/_subclasses/meta_utils.py:417] {"describe_tensor": {"id": 1, "ndim": 2, "dtype": "torch.int64", "device": "device(type='cuda', index=0)", "size": [256, 80], "is_leaf": true, "is_view": true, "stride": [80, 1], "storage": 1, "base": 2, "creation_meta": "CreationMeta.NO_GRAD_MODE", "view_func": "<built-in method _view_func_unsafe of Tensor object at 0x7fb9fc4b4040>", "describer_id": 10}, "frame_id": 3, "frame_compile_id": 0, "attempt": 0}
V0303 09:09:43.316839 12578 torch/_subclasses/meta_utils.py:1640] {"describe_source": {"describer_id": 10, "id": 1, "source": "L['batch'][1]"}, "frame_id": 3, "frame_compile_id": 0, "attempt": 0}
V0303 09:09:43.318640 12578 torch/_subclasses/meta_utils.py:204] {"describe_storage": {"id": 2, "describer_id": 10, "size": 20480}, "frame_id": 3, "frame_compile_id": 0, "attempt": 0}
V0303 09:09:43.318941 12578 torch/_subclasses/meta_utils.py:417] {"describe_tensor": {"id": 4, "ndim": 3, "dtype": "torch.bool", "device": "device(type='cuda', index=0)", "size": [256, 20, 4], "is_leaf": true, "stride": [80, 4, 1], "storage": 2, "view_func": "<built-in method _view_func_unsafe of Tensor object at 0x7fba18a41180>", "describer_id": 10}, "frame_id": 3, "frame_compile_id": 0, "attempt": 0}
V0303 09:09:43.319161 12578 torch/_subclasses/meta_utils.py:417] {"describe_tensor": {"id": 3, "ndim": 2, "dtype": "torch.bool", "device": "device(type='cuda', index=0)", "size": [256, 80], "is_leaf": true, "is_view": true, "stride": [80, 1], "storage": 2, "base": 4, "creation_meta": "CreationMeta.NO_GRAD_MODE", "view_func": "<built-in method _view_func_unsafe of Tensor object at 0x7fb9fc4b4090>", "describer_id": 10}, "frame_id": 3, "frame_compile_id": 0, "attempt": 0}
V0303 09:09:43.319310 12578 torch/_subclasses/meta_utils.py:1640] {"describe_source": {"describer_id": 10, "id": 3, "source": "L['batch'][3]"}, "frame_id": 3, "frame_compile_id": 0, "attempt": 0}
V0303 09:09:43.321095 12578 torch/_subclasses/meta_utils.py:204] {"describe_storage": {"id": 3, "describer_id": 10, "size": 8192}, "frame_id": 3, "frame_compile_id": 0, "attempt": 0}
V0303 09:09:43.321395 12578 torch/_subclasses/meta_utils.py:417] {"describe_tensor": {"id": 6, "ndim": 2, "dtype": "torch.int64", "device": "device(type='cuda', index=0)", "size": [256, 4], "is_leaf": true, "stride": [4, 1], "storage": 3, "view_func": "<built-in method _view_func_unsafe of Tensor object at 0x7fb9fc4b40e0>", "describer_id": 10}, "frame_id": 3, "frame_compile_id": 0, "attempt": 0}
V0303 09:09:43.321623 12578 torch/_subclasses/meta_utils.py:417] {"describe_tensor": {"id": 5, "ndim": 2, "dtype": "torch.int64", "device": "device(type='cuda', index=0)", "size": [256, 4], "is_leaf": true, "is_view": true, "stride": [4, 1], "storage": 3, "base": 6, "creation_meta": "CreationMeta.NO_GRAD_MODE", "view_func": "<built-in method _view_func_unsafe of Tensor object at 0x7fb9fc4b4270>", "describer_id": 10}, "frame_id": 3, "frame_compile_id": 0, "attempt": 0}
V0303 09:09:43.321815 12578 torch/_subclasses/meta_utils.py:1640] {"describe_source": {"describer_id": 10, "id": 5, "source": "L['batch'][2]"}, "frame_id": 3, "frame_compile_id": 0, "attempt": 0}
V0303 09:09:43.323107 12578 torch/_subclasses/meta_utils.py:204] {"describe_storage": {"id": 4, "describer_id": 10, "size": 8192}, "frame_id": 3, "frame_compile_id": 0, "attempt": 0}
V0303 09:09:43.323365 12578 torch/_subclasses/meta_utils.py:417] {"describe_tensor": {"id": 7, "ndim": 2, "dtype": "torch.int64", "device": "device(type='cuda', index=0)", "size": [256, 4], "is_leaf": true, "stride": [4, 1], "storage": 4, "view_func": "<built-in method _view_func_unsafe of Tensor object at 0x7fb9fc4b4220>", "describer_id": 10}, "frame_id": 3, "frame_compile_id": 0, "attempt": 0}
V0303 09:09:43.323520 12578 torch/_subclasses/meta_utils.py:1640] {"describe_source": {"describer_id": 10, "id": 7, "source": "L['batch'][5]"}, "frame_id": 3, "frame_compile_id": 0, "attempt": 0}
V0303 09:09:43.327201 12578 torch/_subclasses/meta_utils.py:204] {"describe_storage": {"id": 5, "describer_id": 10, "size": 524800}, "frame_id": 3, "frame_compile_id": 0, "attempt": 0}
V0303 09:09:43.327478 12578 torch/_subclasses/meta_utils.py:417] {"describe_tensor": {"id": 8, "ndim": 2, "dtype": "torch.float32", "device": "device(type='cuda', index=0)", "size": [1025, 128], "is_leaf": true, "requires_grad": true, "is_parameter": true, "stride": [128, 1], "storage": 5, "view_func": "<built-in method _view_func_unsafe of Parameter object at 0x7fba18b0cf90>", "describer_id": 10}, "frame_id": 3, "frame_compile_id": 0, "attempt": 0}
V0303 09:09:43.327638 12578 torch/_subclasses/meta_utils.py:1640] {"describe_source": {"describer_id": 10, "id": 8, "source": "L['self']._modules['emb']._parameters['weight']"}, "frame_id": 3, "frame_compile_id": 0, "attempt": 0}
V0303 09:09:43.333705 12578 torch/_dynamo/output_graph.py:1346] {"dynamo_output_graph": {"sizes": {"l_batch_4_": [256, 80], "l_batch_1_": [256, 80], "l_batch_3_": [256, 80], "l_batch_2_": [256, 4], "l_batch_5_": [256, 4], "l_self_modules_emb_parameters_weight_": [1025, 128], "mul": [256, 80], "sem_ids": [256, 80], "invert": [256, 80], "mul_1": [256, 4], "sem_ids_fut": [256, 4], "sem_ids_fut_1": [256, 4, 128], "embedding_1": [256, 80, 128]}}, "frame_id": 3, "frame_compile_id": 0, "attempt": 0, "has_payload": "624b69770129469f47114dfa28d4d04f"}
	class GraphModule(torch.nn.Module):
	    def forward(self, L_batch_4_: "i64[256, 80][80, 1]cuda:0", L_batch_1_: "i64[256, 80][80, 1]cuda:0", L_batch_3_: "b8[256, 80][80, 1]cuda:0", L_batch_2_: "i64[256, 4][4, 1]cuda:0", L_batch_5_: "i64[256, 4][4, 1]cuda:0", L_self_modules_emb_parameters_weight_: "f32[1025, 128][128, 1]cuda:0"):
	        l_batch_4_ = L_batch_4_
	        l_batch_1_ = L_batch_1_
	        l_batch_3_ = L_batch_3_
	        l_batch_2_ = L_batch_2_
	        l_batch_5_ = L_batch_5_
	        l_self_modules_emb_parameters_weight_ = L_self_modules_emb_parameters_weight_
	        
	         # File: /home/ec2-user/code/RQ-VAE-Recommender/modules/embedding/id_embedder.py:29 in forward, code: sem_ids = batch.token_type_ids*self.num_embeddings + batch.sem_ids
	        mul: "i64[256, 80][80, 1]cuda:0" = l_batch_4_ * 256;  l_batch_4_ = None
	        sem_ids: "i64[256, 80][80, 1]cuda:0" = mul + l_batch_1_;  mul = l_batch_1_ = None
	        
	         # File: /home/ec2-user/code/RQ-VAE-Recommender/modules/embedding/id_embedder.py:30 in forward, code: sem_ids[~batch.seq_mask] = self.padding_idx
	        invert: "b8[256, 80][80, 1]cuda:0" = ~l_batch_3_;  l_batch_3_ = None
	        sem_ids[invert] = 1024;  setitem = sem_ids;  invert = setitem = None
	        
	         # File: /home/ec2-user/code/RQ-VAE-Recommender/modules/embedding/id_embedder.py:33 in forward, code: sem_ids_fut = batch.token_type_ids_fut*self.num_embeddings + batch.sem_ids_fut
	        mul_1: "i64[256, 4][4, 1]cuda:0" = l_batch_5_ * 256;  l_batch_5_ = None
	        sem_ids_fut: "i64[256, 4][4, 1]cuda:0" = mul_1 + l_batch_2_;  mul_1 = l_batch_2_ = None
	        
	         # File: /home/ec2-user/code/RQ-VAE-Recommender/modules/embedding/id_embedder.py:34 in forward, code: sem_ids_fut = self.emb(sem_ids_fut)
	        sem_ids_fut_1: "f32[256, 4, 128][512, 128, 1]cuda:0" = torch.nn.functional.embedding(sem_ids_fut, l_self_modules_emb_parameters_weight_, 1024, None, 2.0, False, False);  sem_ids_fut = None
	        
	         # File: /home/ec2-user/code/RQ-VAE-Recommender/modules/embedding/id_embedder.py:38 in forward, code: seq=self.emb(sem_ids),
	        embedding_1: "f32[256, 80, 128][10240, 128, 1]cuda:0" = torch.nn.functional.embedding(sem_ids, l_self_modules_emb_parameters_weight_, 1024, None, 2.0, False, False);  sem_ids = l_self_modules_emb_parameters_weight_ = None
	        return (embedding_1, sem_ids_fut_1)
	        
V0303 09:09:43.334182 12578 torch/_dynamo/utils.py:953] {"chromium_event": {}, "frame_id": 3, "frame_compile_id": 0, "attempt": 0, "has_payload": "bf73b7fc23aadb3d017d6694c061c0e8"}
	{
	"name": "OutputGraph.call_user_compiler",
	"ts": 1740992983334115.8,
	"args": null,
	"ph": "B",
	"cat": "dynamo_timed",
	"tid": 0,
	"pid": 0
	}
V0303 09:09:43.334367 12578 torch/_dynamo/utils.py:953] {"chromium_event": {}, "frame_id": 3, "frame_compile_id": 0, "attempt": 0, "has_payload": "91fd70f020e749141a2c7308c5c5abce"}
	{
	"name": "backend_compile",
	"ts": 1740992983334115.8,
	"args": null,
	"ph": "B",
	"cat": "dynamo_timed",
	"tid": 0,
	"pid": 0
	}
V0303 09:09:43.339719 12578 torch/_dynamo/utils.py:953] {"chromium_event": {}, "frame_id": 3, "frame_compile_id": 0, "attempt": 0, "has_payload": "5746337100de5b2b75826c6eacfd186c"}
	{
	"name": "create_aot_dispatcher_function",
	"ts": 1740992983339658.8,
	"args": null,
	"ph": "B",
	"cat": "dynamo_timed",
	"tid": 0,
	"pid": 0
	}
V0303 09:09:43.381683 12578 torch/_functorch/_aot_autograd/jit_compile_runtime_wrappers.py:352] {"aot_joint_graph": {}, "frame_id": 3, "frame_compile_id": 0, "attempt": 0, "has_payload": "b0d07fb783b1732337f779de1420580e"}
	class joint_helper(torch.nn.Module):
	    def forward(self, primals, tangents):
	        primals_1: "i64[256, 80][80, 1]cuda:0"; primals_2: "i64[256, 80][80, 1]cuda:0"; primals_3: "b8[256, 80][80, 1]cuda:0"; primals_4: "i64[256, 4][4, 1]cuda:0"; primals_5: "i64[256, 4][4, 1]cuda:0"; primals_6: "f32[1025, 128][128, 1]cuda:0"; tangents_1: "f32[256, 80, 128][10240, 128, 1]cuda:0"; tangents_2: "f32[256, 4, 128][512, 128, 1]cuda:0"; 
	    
	        primals_1, primals_2, primals_3, primals_4, primals_5, primals_6, tangents_1, tangents_2, = fx_pytree.tree_flatten_spec([primals, tangents], self._in_spec)
	         # File: /home/ec2-user/code/RQ-VAE-Recommender/modules/embedding/id_embedder.py:29 in forward, code: sem_ids = batch.token_type_ids*self.num_embeddings + batch.sem_ids
	        mul: "i64[256, 80][80, 1]cuda:0" = torch.ops.aten.mul.Tensor(primals_1, 256);  primals_1 = None
	        add: "i64[256, 80][80, 1]cuda:0" = torch.ops.aten.add.Tensor(mul, primals_2);  mul = primals_2 = None
	        
	         # File: /home/ec2-user/code/RQ-VAE-Recommender/modules/embedding/id_embedder.py:30 in forward, code: sem_ids[~batch.seq_mask] = self.padding_idx
	        bitwise_not: "b8[256, 80][80, 1]cuda:0" = torch.ops.aten.bitwise_not.default(primals_3);  primals_3 = None
	        _tensor_constant0 = self._tensor_constant0
	        lift_fresh_copy: "i64[][]cpu" = torch.ops.aten.lift_fresh_copy.default(_tensor_constant0);  _tensor_constant0 = None
	        index_put: "i64[256, 80][80, 1]cuda:0" = torch.ops.aten.index_put.default(add, [bitwise_not], lift_fresh_copy);  add = bitwise_not = lift_fresh_copy = None
	        
	         # File: /home/ec2-user/code/RQ-VAE-Recommender/modules/embedding/id_embedder.py:33 in forward, code: sem_ids_fut = batch.token_type_ids_fut*self.num_embeddings + batch.sem_ids_fut
	        mul_1: "i64[256, 4][4, 1]cuda:0" = torch.ops.aten.mul.Tensor(primals_5, 256);  primals_5 = None
	        add_1: "i64[256, 4][4, 1]cuda:0" = torch.ops.aten.add.Tensor(mul_1, primals_4);  mul_1 = primals_4 = None
	        
	         # File: /home/ec2-user/code/RQ-VAE-Recommender/modules/embedding/id_embedder.py:34 in forward, code: sem_ids_fut = self.emb(sem_ids_fut)
	        embedding: "f32[256, 4, 128][512, 128, 1]cuda:0" = torch.ops.aten.embedding.default(primals_6, add_1, 1024)
	        
	         # File: /home/ec2-user/code/RQ-VAE-Recommender/modules/embedding/id_embedder.py:38 in forward, code: seq=self.emb(sem_ids),
	        embedding_1: "f32[256, 80, 128][10240, 128, 1]cuda:0" = torch.ops.aten.embedding.default(primals_6, index_put, 1024);  primals_6 = None
	        eq: "b8[256, 80][80, 1]cuda:0" = torch.ops.aten.eq.Scalar(index_put, 1024)
	        unsqueeze: "b8[256, 80, 1][80, 1, 1]cuda:0" = torch.ops.aten.unsqueeze.default(eq, -1);  eq = None
	        scalar_tensor: "f32[][]cuda:0" = torch.ops.aten.scalar_tensor.default(0.0, dtype = torch.float32, layout = torch.strided, device = device(type='cuda', index=0))
	        where: "f32[256, 80, 128][10240, 128, 1]cuda:0" = torch.ops.aten.where.self(unsqueeze, scalar_tensor, tangents_1);  unsqueeze = scalar_tensor = tangents_1 = None
	        full: "f32[1025, 128][128, 1]cuda:0" = torch.ops.aten.full.default([1025, 128], 0, dtype = torch.float32, layout = torch.strided, device = device(type='cuda', index=0), pin_memory = False)
	        index_put_1: "f32[1025, 128][128, 1]cuda:0" = torch.ops.aten.index_put.default(full, [index_put], where, True);  full = index_put = where = None
	        
	         # File: /home/ec2-user/code/RQ-VAE-Recommender/modules/embedding/id_embedder.py:34 in forward, code: sem_ids_fut = self.emb(sem_ids_fut)
	        eq_1: "b8[256, 4][4, 1]cuda:0" = torch.ops.aten.eq.Scalar(add_1, 1024)
	        unsqueeze_1: "b8[256, 4, 1][4, 1, 1]cuda:0" = torch.ops.aten.unsqueeze.default(eq_1, -1);  eq_1 = None
	        scalar_tensor_1: "f32[][]cuda:0" = torch.ops.aten.scalar_tensor.default(0.0, dtype = torch.float32, layout = torch.strided, device = device(type='cuda', index=0))
	        where_1: "f32[256, 4, 128][512, 128, 1]cuda:0" = torch.ops.aten.where.self(unsqueeze_1, scalar_tensor_1, tangents_2);  unsqueeze_1 = scalar_tensor_1 = tangents_2 = None
	        full_1: "f32[1025, 128][128, 1]cuda:0" = torch.ops.aten.full.default([1025, 128], 0, dtype = torch.float32, layout = torch.strided, device = device(type='cuda', index=0), pin_memory = False)
	        index_put_2: "f32[1025, 128][128, 1]cuda:0" = torch.ops.aten.index_put.default(full_1, [add_1], where_1, True);  full_1 = add_1 = where_1 = None
	        
	         # File: /home/ec2-user/code/RQ-VAE-Recommender/modules/embedding/id_embedder.py:34 in forward, code: sem_ids_fut = self.emb(sem_ids_fut)
	        add_2: "f32[1025, 128][128, 1]cuda:0" = torch.ops.aten.add.Tensor(index_put_1, index_put_2);  index_put_1 = index_put_2 = None
	        return pytree.tree_unflatten([embedding_1, embedding, None, None, None, None, None, add_2], self._out_spec)
	        
V0303 09:09:43.396331 12578 torch/_functorch/_aot_autograd/jit_compile_runtime_wrappers.py:545] {"aot_forward_graph": {}, "frame_id": 3, "frame_compile_id": 0, "attempt": 0, "has_payload": "b826dd65b0b17485e6b2aa648e63737b"}
	class GraphModule(torch.nn.Module):
	    def forward(self, primals_1: "i64[256, 80][80, 1]cuda:0", primals_2: "i64[256, 80][80, 1]cuda:0", primals_3: "b8[256, 80][80, 1]cuda:0", primals_4: "i64[256, 4][4, 1]cuda:0", primals_5: "i64[256, 4][4, 1]cuda:0", primals_6: "f32[1025, 128][128, 1]cuda:0"):
	         # File: /home/ec2-user/code/RQ-VAE-Recommender/modules/embedding/id_embedder.py:29 in forward, code: sem_ids = batch.token_type_ids*self.num_embeddings + batch.sem_ids
	        mul: "i64[256, 80][80, 1]cuda:0" = torch.ops.aten.mul.Tensor(primals_1, 256);  primals_1 = None
	        add: "i64[256, 80][80, 1]cuda:0" = torch.ops.aten.add.Tensor(mul, primals_2);  mul = primals_2 = None
	        
	         # File: /home/ec2-user/code/RQ-VAE-Recommender/modules/embedding/id_embedder.py:30 in forward, code: sem_ids[~batch.seq_mask] = self.padding_idx
	        bitwise_not: "b8[256, 80][80, 1]cuda:0" = torch.ops.aten.bitwise_not.default(primals_3);  primals_3 = None
	        full_default: "i64[][]cpu" = torch.ops.aten.full.default([], 1024, dtype = torch.int64, layout = torch.strided, device = device(type='cpu'), pin_memory = False)
	        index_put: "i64[256, 80][80, 1]cuda:0" = torch.ops.aten.index_put.default(add, [bitwise_not], full_default);  add = bitwise_not = full_default = None
	        
	         # File: /home/ec2-user/code/RQ-VAE-Recommender/modules/embedding/id_embedder.py:33 in forward, code: sem_ids_fut = batch.token_type_ids_fut*self.num_embeddings + batch.sem_ids_fut
	        mul_1: "i64[256, 4][4, 1]cuda:0" = torch.ops.aten.mul.Tensor(primals_5, 256);  primals_5 = None
	        add_1: "i64[256, 4][4, 1]cuda:0" = torch.ops.aten.add.Tensor(mul_1, primals_4);  mul_1 = primals_4 = None
	        
	         # File: /home/ec2-user/code/RQ-VAE-Recommender/modules/embedding/id_embedder.py:34 in forward, code: sem_ids_fut = self.emb(sem_ids_fut)
	        embedding: "f32[256, 4, 128][512, 128, 1]cuda:0" = torch.ops.aten.embedding.default(primals_6, add_1, 1024)
	        
	         # File: /home/ec2-user/code/RQ-VAE-Recommender/modules/embedding/id_embedder.py:38 in forward, code: seq=self.emb(sem_ids),
	        embedding_1: "f32[256, 80, 128][10240, 128, 1]cuda:0" = torch.ops.aten.embedding.default(primals_6, index_put, 1024);  primals_6 = None
	        return (embedding_1, embedding, index_put, add_1)
	        
V0303 09:09:43.397177 12578 torch/_functorch/_aot_autograd/jit_compile_runtime_wrappers.py:551] {"aot_backward_graph": {}, "frame_id": 3, "frame_compile_id": 0, "attempt": 0, "has_payload": "5cd84269ed21845e4e48e6f8d9c098b1"}
	class GraphModule(torch.nn.Module):
	    def forward(self, index_put: "i64[256, 80][80, 1]cuda:0", add_1: "i64[256, 4][4, 1]cuda:0", tangents_1: "f32[256, 80, 128][10240, 128, 1]cuda:0", tangents_2: "f32[256, 4, 128][512, 128, 1]cuda:0"):
	         # File: /home/ec2-user/code/RQ-VAE-Recommender/modules/embedding/id_embedder.py:38 in forward, code: seq=self.emb(sem_ids),
	        eq: "b8[256, 80][80, 1]cuda:0" = torch.ops.aten.eq.Scalar(index_put, 1024)
	        unsqueeze: "b8[256, 80, 1][80, 1, 1]cuda:0" = torch.ops.aten.unsqueeze.default(eq, -1);  eq = None
	        full_default_1: "f32[][]cuda:0" = torch.ops.aten.full.default([], 0.0, dtype = torch.float32, layout = torch.strided, device = device(type='cuda', index=0), pin_memory = False)
	        where: "f32[256, 80, 128][10240, 128, 1]cuda:0" = torch.ops.aten.where.self(unsqueeze, full_default_1, tangents_1);  unsqueeze = tangents_1 = None
	        full_default_2: "f32[1025, 128][128, 1]cuda:0" = torch.ops.aten.full.default([1025, 128], 0, dtype = torch.float32, layout = torch.strided, device = device(type='cuda', index=0), pin_memory = False)
	        index_put_1: "f32[1025, 128][128, 1]cuda:0" = torch.ops.aten.index_put.default(full_default_2, [index_put], where, True);  index_put = where = None
	        
	         # File: /home/ec2-user/code/RQ-VAE-Recommender/modules/embedding/id_embedder.py:34 in forward, code: sem_ids_fut = self.emb(sem_ids_fut)
	        eq_1: "b8[256, 4][4, 1]cuda:0" = torch.ops.aten.eq.Scalar(add_1, 1024)
	        unsqueeze_1: "b8[256, 4, 1][4, 1, 1]cuda:0" = torch.ops.aten.unsqueeze.default(eq_1, -1);  eq_1 = None
	        where_1: "f32[256, 4, 128][512, 128, 1]cuda:0" = torch.ops.aten.where.self(unsqueeze_1, full_default_1, tangents_2);  unsqueeze_1 = full_default_1 = tangents_2 = None
	        index_put_2: "f32[1025, 128][128, 1]cuda:0" = torch.ops.aten.index_put.default(full_default_2, [add_1], where_1, True);  full_default_2 = add_1 = where_1 = None
	        
	         # File: /home/ec2-user/code/RQ-VAE-Recommender/modules/embedding/id_embedder.py:34 in forward, code: sem_ids_fut = self.emb(sem_ids_fut)
	        add_2: "f32[1025, 128][128, 1]cuda:0" = torch.ops.aten.add.Tensor(index_put_1, index_put_2);  index_put_1 = index_put_2 = None
	        return (None, None, None, None, None, add_2)
	        
V0303 09:09:43.397580 12578 torch/_dynamo/utils.py:953] {"chromium_event": {}, "frame_id": 3, "frame_compile_id": 0, "attempt": 0, "has_payload": "38424f7967956b62214de575f0022781"}
	{
	"name": "compile_fx.<locals>.fw_compiler_base",
	"ts": 1740992983397374.2,
	"args": null,
	"ph": "B",
	"cat": "dynamo_timed",
	"tid": 0,
	"pid": 0
	}
V0303 09:09:43.397887 12578 torch/_dynamo/utils.py:953] {"chromium_event": {}, "frame_id": 3, "frame_compile_id": 0, "attempt": 0, "has_payload": "68c662d9b3ed7526ca8f08bb9b6ea221"}
	{
	"name": "compile_fx_inner",
	"ts": 1740992983397819.8,
	"args": null,
	"ph": "B",
	"cat": "dynamo_timed",
	"tid": 0,
	"pid": 0
	}
V0303 09:09:43.398065 12578 torch/_dynamo/utils.py:953] {"chromium_event": {}, "frame_id": 3, "frame_compile_id": 0, "attempt": 0, "has_payload": "f677871d35e2d5b601299212c49d291b"}
	{
	"name": "inductor_compile",
	"ts": 1740992983397819.8,
	"args": null,
	"ph": "B",
	"cat": "dynamo_timed",
	"tid": 0,
	"pid": 0
	}
V0303 09:09:43.405200 12578 torch/_inductor/compile_fx.py:742] {"artifact": {"name": "fx_graph_runnable", "encoding": "string"}, "frame_id": 3, "frame_compile_id": 0, "attempt": 0, "has_payload": "245d0d7c3461c7a308407328fedac1aa"}
	
	import torch
	from torch import tensor, device
	import torch.fx as fx
	from torch._dynamo.testing import rand_strided
	from math import inf
	import torch._inductor.inductor_prims
	
	import torch._dynamo.config
	import torch._inductor.config
	import torch._functorch.config
	import torch.fx.experimental._config
	torch._dynamo.config.suppress_errors = True
	
	torch._functorch.config.unlift_effect_tokens = True
	
	
	
	isolate_fails_code_str = None
	
	
	
	# torch version: 2.5.1+cu124
	# torch cuda version: 12.4
	# torch git version: a8d6afb511a69687bbb2b7e88a3cf67917e1697e
	
	
	# CUDA Info: 
	# nvcc: NVIDIA (R) Cuda compiler driver 
	# Copyright (c) 2005-2024 NVIDIA Corporation 
	# Built on Thu_Mar_28_02:18:24_PDT_2024 
	# Cuda compilation tools, release 12.4, V12.4.131 
	# Build cuda_12.4.r12.4/compiler.34097967_0 
	
	# GPU Hardware Info: 
	# NVIDIA L4 : 1 
	
	
	from torch.nn import *
	class Repro(torch.nn.Module):
	    def __init__(self) -> None:
	        super().__init__()
	
	    
	    
	    def forward(self, primals_1, primals_2, primals_3, primals_4, primals_5, primals_6):
	        mul = torch.ops.aten.mul.Tensor(primals_1, 256);  primals_1 = None
	        add = torch.ops.aten.add.Tensor(mul, primals_2);  mul = primals_2 = None
	        bitwise_not = torch.ops.aten.bitwise_not.default(primals_3);  primals_3 = None
	        full_default = torch.ops.aten.full.default([], 1024, dtype = torch.int64, layout = torch.strided, device = device(type='cpu'), pin_memory = False)
	        index_put = torch.ops.aten.index_put.default(add, [bitwise_not], full_default);  add = bitwise_not = full_default = None
	        mul_1 = torch.ops.aten.mul.Tensor(primals_5, 256);  primals_5 = None
	        add_1 = torch.ops.aten.add.Tensor(mul_1, primals_4);  mul_1 = primals_4 = None
	        embedding = torch.ops.aten.embedding.default(primals_6, add_1, 1024)
	        embedding_1 = torch.ops.aten.embedding.default(primals_6, index_put, 1024);  primals_6 = None
	        return (embedding_1, embedding, index_put, add_1)
	        
	def load_args(reader):
	    buf0 = reader.storage(None, 163840, device=device(type='cuda', index=0), dtype_hint=torch.int64)
	    reader.tensor(buf0, (256, 80), dtype=torch.int64, is_leaf=True)  # primals_1
	    buf1 = reader.storage(None, 163840, device=device(type='cuda', index=0), dtype_hint=torch.int64)
	    reader.tensor(buf1, (256, 80), dtype=torch.int64, is_leaf=True)  # primals_2
	    buf2 = reader.storage(None, 20480, device=device(type='cuda', index=0), dtype_hint=torch.bool)
	    reader.tensor(buf2, (256, 80), dtype=torch.bool, is_leaf=True)  # primals_3
	    buf3 = reader.storage(None, 8192, device=device(type='cuda', index=0), dtype_hint=torch.int64)
	    reader.tensor(buf3, (256, 4), dtype=torch.int64, is_leaf=True)  # primals_4
	    buf4 = reader.storage(None, 8192, device=device(type='cuda', index=0), dtype_hint=torch.int64)
	    reader.tensor(buf4, (256, 4), dtype=torch.int64, is_leaf=True)  # primals_5
	    buf5 = reader.storage(None, 524800, device=device(type='cuda', index=0))
	    reader.tensor(buf5, (1025, 128), is_leaf=True)  # primals_6
	load_args._version = 0
	mod = Repro()
	if __name__ == '__main__':
	    from torch._dynamo.repro.after_aot import run_repro
	    with torch.no_grad():
	        run_repro(mod, load_args, accuracy=False, command='run', save_dir=None, tracing_mode='real', check_str=None)
	        # To run it separately, do 
	        # mod, args = run_repro(mod, load_args, accuracy=False, command='get_args', save_dir=None, tracing_mode='real', check_str=None)
	        # mod(*args)
V0303 09:09:43.410806 12578 torch/_inductor/compile_fx.py:801] {"inductor_post_grad_graph": {}, "frame_id": 3, "frame_compile_id": 0, "attempt": 0, "has_payload": "3cb319b2e8942a9328eea50555ad28c0"}
	class GraphModule(torch.nn.Module):
	    def forward(self, primals_1: "i64[256, 80][80, 1]cuda:0", primals_2: "i64[256, 80][80, 1]cuda:0", primals_3: "b8[256, 80][80, 1]cuda:0", primals_4: "i64[256, 4][4, 1]cuda:0", primals_5: "i64[256, 4][4, 1]cuda:0", primals_6: "f32[1025, 128][128, 1]cuda:0"):
	         # File: /home/ec2-user/code/RQ-VAE-Recommender/modules/embedding/id_embedder.py:29 in forward, code: sem_ids = batch.token_type_ids*self.num_embeddings + batch.sem_ids
	        mul: "i64[256, 80][80, 1]cuda:0" = torch.ops.aten.mul.Tensor(primals_1, 256);  primals_1 = None
	        add: "i64[256, 80][80, 1]cuda:0" = torch.ops.aten.add.Tensor(mul, primals_2);  mul = primals_2 = None
	        
	         # File: /home/ec2-user/code/RQ-VAE-Recommender/modules/embedding/id_embedder.py:30 in forward, code: sem_ids[~batch.seq_mask] = self.padding_idx
	        bitwise_not: "b8[256, 80][80, 1]cuda:0" = torch.ops.aten.bitwise_not.default(primals_3);  primals_3 = None
	        full_default: "i64[][]cpu" = torch.ops.aten.full.default([], 1024, dtype = torch.int64, layout = torch.strided, device = device(type='cpu'), pin_memory = False)
	        index_put: "i64[256, 80][80, 1]cuda:0" = torch.ops.aten.index_put_.default(add, [bitwise_not], full_default);  add = bitwise_not = full_default = None
	        
	         # File: /home/ec2-user/code/RQ-VAE-Recommender/modules/embedding/id_embedder.py:33 in forward, code: sem_ids_fut = batch.token_type_ids_fut*self.num_embeddings + batch.sem_ids_fut
	        mul_1: "i64[256, 4][4, 1]cuda:0" = torch.ops.aten.mul.Tensor(primals_5, 256);  primals_5 = None
	        add_1: "i64[256, 4][4, 1]cuda:0" = torch.ops.aten.add.Tensor(mul_1, primals_4);  mul_1 = primals_4 = None
	        
	         # File: /home/ec2-user/code/RQ-VAE-Recommender/modules/embedding/id_embedder.py:34 in forward, code: sem_ids_fut = self.emb(sem_ids_fut)
	        embedding: "f32[256, 4, 128][512, 128, 1]cuda:0" = torch.ops.aten.embedding.default(primals_6, add_1, 1024)
	        
	         # File: /home/ec2-user/code/RQ-VAE-Recommender/modules/embedding/id_embedder.py:38 in forward, code: seq=self.emb(sem_ids),
	        embedding_1: "f32[256, 80, 128][10240, 128, 1]cuda:0" = torch.ops.aten.embedding.default(primals_6, index_put, 1024);  primals_6 = None
	        return (embedding_1, embedding, index_put, add_1)
	        
V0303 09:09:43.411375 12578 torch/_dynamo/utils.py:953] {"chromium_event": {}, "frame_id": 3, "frame_compile_id": 0, "attempt": 0, "has_payload": "b078e661cdbdcaf1aec7116fd646f488"}
	{
	"name": "GraphLowering.run",
	"ts": 1740992983411309.2,
	"args": null,
	"ph": "B",
	"cat": "dynamo_timed",
	"tid": 0,
	"pid": 0
	}
V0303 09:09:43.417716 12578 torch/_dynamo/utils.py:953] {"chromium_event": {}, "frame_id": 3, "frame_compile_id": 0, "attempt": 0, "has_payload": "577f4fe984cbbb3cb579d19669421d31"}
	{
	"name": "GraphLowering.run",
	"ts": 1740992983417663.2,
	"args": {
	"cache_stats": {
	"fxgraph_cache_hit": 0,
	"fxgraph_cache_miss": 3,
	"fxgraph_cache_bypass": 0
	}
	},
	"ph": "E",
	"cat": "dynamo_timed",
	"tid": 0,
	"pid": 0
	}
V0303 09:09:43.418056 12578 torch/_dynamo/utils.py:953] {"chromium_event": {}, "frame_id": 3, "frame_compile_id": 0, "attempt": 0, "has_payload": "4a3bb1a81123f016850863cab24b832a"}
	{
	"name": "GraphLowering.compile_to_module",
	"ts": 1740992983417991.0,
	"args": null,
	"ph": "B",
	"cat": "dynamo_timed",
	"tid": 0,
	"pid": 0
	}
V0303 09:09:43.418237 12578 torch/_dynamo/utils.py:953] {"chromium_event": {}, "frame_id": 3, "frame_compile_id": 0, "attempt": 0, "has_payload": "958dd75f49bb05ab18feba547ec6f345"}
	{
	"name": "code_gen",
	"ts": 1740992983417991.0,
	"args": null,
	"ph": "B",
	"cat": "dynamo_timed",
	"tid": 0,
	"pid": 0
	}
V0303 09:09:43.419084 12578 torch/_dynamo/utils.py:953] {"chromium_event": {}, "frame_id": 3, "frame_compile_id": 0, "attempt": 0, "has_payload": "823e9690b8e129ee6cffea9b674caf09"}
	{
	"name": "Scheduler.__init__",
	"ts": 1740992983419024.0,
	"args": null,
	"ph": "B",
	"cat": "dynamo_timed",
	"tid": 0,
	"pid": 0
	}
V0303 09:09:43.434653 12578 torch/_dynamo/utils.py:953] {"chromium_event": {}, "frame_id": 3, "frame_compile_id": 0, "attempt": 0, "has_payload": "052121fec434af760a357f59d88ada13"}
	{
	"name": "Scheduler.__init__",
	"ts": 1740992983434602.8,
	"args": {
	"cache_stats": {
	"fxgraph_cache_hit": 0,
	"fxgraph_cache_miss": 3,
	"fxgraph_cache_bypass": 0
	}
	},
	"ph": "E",
	"cat": "dynamo_timed",
	"tid": 0,
	"pid": 0
	}
V0303 09:09:43.434927 12578 torch/_dynamo/utils.py:953] {"chromium_event": {}, "frame_id": 3, "frame_compile_id": 0, "attempt": 0, "has_payload": "e80f0f8262c57c7dc2723f29c6593acd"}
	{
	"name": "Scheduler.codegen",
	"ts": 1740992983434865.5,
	"args": null,
	"ph": "B",
	"cat": "dynamo_timed",
	"tid": 0,
	"pid": 0
	}
V0303 09:09:43.555553 12578 torch/_dynamo/utils.py:953] {"chromium_event": {}, "frame_id": 3, "frame_compile_id": 0, "attempt": 0, "has_payload": "5082e7a9ad5d4fced912380fcd6659aa"}
	{
	"name": "Scheduler.codegen",
	"ts": 1740992983555297.8,
	"args": {
	"cache_stats": {
	"fxgraph_cache_hit": 0,
	"fxgraph_cache_miss": 3,
	"fxgraph_cache_bypass": 0
	}
	},
	"ph": "E",
	"cat": "dynamo_timed",
	"tid": 0,
	"pid": 0
	}
…
	"[esstihe2nyydk4mhzpvox3qkajyu5y5t23hk3fi2me7jn75xi3o] inductor_config[is_predispatch]: False",
	"[tquy2we2efmowuj4wuqzcfcfdcrkzkzmwdae6hprj7fa64jpusq] inductor_config[joint_custom_post_pass]: None",
	"[tquy2we2efmowuj4wuqzcfcfdcrkzkzmwdae6hprj7fa64jpusq] inductor_config[joint_custom_pre_pass]: None",
	"[cev5uo2jlwdhw2uyzcm7vr6cl23azjfw437f5r5lskm7spucos6] inductor_config[joint_graph_constant_folding]: True",
	"[cev5uo2jlwdhw2uyzcm7vr6cl23azjfw437f5r5lskm7spucos6] inductor_config[keep_output_stride]: True",
	"[j6c55jha5r2sdys2rwq7uqhtleea5dgjcye7nicfgft36v7xfvp] inductor_config[kernel_name_max_ops]: 10",
	"[4p2fdjlvxrcw7c7fvzm5huhtqxnro4kvkx56f7p5zyrxqkwooov] inductor_config[layout_opt_default]: 1",
	"[cev5uo2jlwdhw2uyzcm7vr6cl23azjfw437f5r5lskm7spucos6] inductor_config[layout_optimization]: True",
	"[esstihe2nyydk4mhzpvox3qkajyu5y5t23hk3fi2me7jn75xi3o] inductor_config[loop_ordering_after_fusion]: False",
	"[esstihe2nyydk4mhzpvox3qkajyu5y5t23hk3fi2me7jn75xi3o] inductor_config[max_autotune]: False",
	"[uqlsbif4zxd75vt522p52txyuguieipi2lwz5g5awt56lccqk7s] inductor_config[max_autotune_conv_backends]: ATEN,TRITON",
	"[esstihe2nyydk4mhzpvox3qkajyu5y5t23hk3fi2me7jn75xi3o] inductor_config[max_autotune_gemm]: False",
	"[2y7luesktjrque3nr7qtxnum2mkbeegzdrsvkm3rvdlhqboajhx] inductor_config[max_autotune_gemm_backends]: ATEN,TRITON,CPP",
	"[jvchmi66fvqzlemhr5fcqorz5trfdtdalzfagtj2aolmimwqhdq] inductor_config[max_autotune_gemm_search_space]: DEFAULT",
	"[esstihe2nyydk4mhzpvox3qkajyu5y5t23hk3fi2me7jn75xi3o] inductor_config[max_autotune_pointwise]: False",
	"[bh33ranllcgilhgmgr3qvygzxjm6isq5iexnfm3zx6fnr2zwlp2] inductor_config[max_autotune_subproc_graceful_timeout_seconds]: 1.0",
	"[iglov24t7x5ruci344aer2tm6nqshi4veuw4wxlssxtu46cx76m] inductor_config[max_autotune_subproc_result_timeout_seconds]: 60.0",
	"[pwoh5aypf4fxbntdvwt67rppxorqos6xr3w7qzeun6kblbfg2ga] inductor_config[max_autotune_subproc_terminate_timeout_seconds]: 2.0",
	"[aghvyrrgwvxijco2pk5wzc3cgmmthrbmgxitiibxuuscxdwrjd3] inductor_config[max_epilogue_benchmarked_choices]: 1",
	"[jykiys6ynafs3zdylwa5ggq6j655mxeh42d6mtdi22gffkrmiac] inductor_config[max_fusion_size]: 64",
	"[yttmfmxblgcbsvbokguzowcorrcxz5uunxtcvsbe6nijgcx45he] inductor_config[max_pointwise_cat_inputs]: 8",
	"[esstihe2nyydk4mhzpvox3qkajyu5y5t23hk3fi2me7jn75xi3o] inductor_config[memory_planning]: False",
	"[x75won4jmsgeb63pcvwr2y4eteyzzdhmf5rv6xhjppie4hx2yu5] inductor_config[memory_pool]: intermediates",
	"[v2td5s4lnsvyxvaevy4chx6kc5h3mm2axazbgwimqule5zrzao7] inductor_config[mixed_mm_choice]: heuristic",
	"[esstihe2nyydk4mhzpvox3qkajyu5y5t23hk3fi2me7jn75xi3o] inductor_config[nan_asserts]: False",
	"[cev5uo2jlwdhw2uyzcm7vr6cl23azjfw437f5r5lskm7spucos6] inductor_config[optimize_scatter_upon_const_tensor]: True",
	"[esstihe2nyydk4mhzpvox3qkajyu5y5t23hk3fi2me7jn75xi3o] inductor_config[pad_channels_last]: False",
	"[esstihe2nyydk4mhzpvox3qkajyu5y5t23hk3fi2me7jn75xi3o] inductor_config[pad_outputs]: False",
	"[ljdqgtysl3vdf7j6attlz5gmjg2ncihnveojfyubosplmkrjgra] inductor_config[padding_alignment_bytes]: 128",
	"[dnnw5ks3yxrp7mwvihb2hh4tqx35ye637xt33x64kw4fvz2nyzg] inductor_config[padding_stride_threshold]: 1024",
	"[cev5uo2jlwdhw2uyzcm7vr6cl23azjfw437f5r5lskm7spucos6] inductor_config[pattern_matcher]: True",
	"[esstihe2nyydk4mhzpvox3qkajyu5y5t23hk3fi2me7jn75xi3o] inductor_config[permute_fusion]: False",
	"[cev5uo2jlwdhw2uyzcm7vr6cl23azjfw437f5r5lskm7spucos6] inductor_config[pick_loop_orders]: True",
	"[tquy2we2efmowuj4wuqzcfcfdcrkzkzmwdae6hprj7fa64jpusq] inductor_config[post_grad_custom_post_pass]: None",
	"[tquy2we2efmowuj4wuqzcfcfdcrkzkzmwdae6hprj7fa64jpusq] inductor_config[post_grad_custom_pre_pass]: None",
	"[4bryyl4ahh5whyg3zwqebpwmjnx6w77nqgqbdjlowju6lkqtn7w] inductor_config[post_grad_fusion_options]: {}",
	"[tquy2we2efmowuj4wuqzcfcfdcrkzkzmwdae6hprj7fa64jpusq] inductor_config[pre_grad_custom_pass]: None",
	"[gtkv35cxmtt6tr556buxi277a67g25mjojnv32dc4bjvc7bwscw] inductor_config[pre_grad_fusion_options]: {'batch_linear': {}, 'batch_linear_lhs': {}, 'batch_layernorm': {}, 'batch_tanh': {}, 'batch_relu': {}, 'batch_sigmoid': {}}",
	"[esstihe2nyydk4mhzpvox3qkajyu5y5t23hk3fi2me7jn75xi3o] inductor_config[profile_bandwidth]: False",
	"[tquy2we2efmowuj4wuqzcfcfdcrkzkzmwdae6hprj7fa64jpusq] inductor_config[profile_bandwidth_output]: None",
	"[v3hzzlv4tjgvp3pyhmzagjd25orl6n7nynoa7svlhhwk73b7u3c] inductor_config[profile_bandwidth_regex]: ",
	"[esstihe2nyydk4mhzpvox3qkajyu5y5t23hk3fi2me7jn75xi3o] inductor_config[profile_bandwidth_with_do_bench_using_profiling]: False",
	"[esstihe2nyydk4mhzpvox3qkajyu5y5t23hk3fi2me7jn75xi3o] inductor_config[profiler_mark_wrapper_call]: False",
	"[yttmfmxblgcbsvbokguzowcorrcxz5uunxtcvsbe6nijgcx45he] inductor_config[realize_acc_reads_threshold]: 8",
	"[rr5m5hsocoyodldz7vcvaizdwvm2rt34evmqdxvng7wz3tufvo6] inductor_config[realize_opcount_threshold]: 30",
	"[lkkae3meylaixfif4thncru4hjqeaislawjoghffrbwuscaagei] inductor_config[realize_reads_threshold]: 4",
	"[esstihe2nyydk4mhzpvox3qkajyu5y5t23hk3fi2me7jn75xi3o] inductor_config[reorder_for_compute_comm_overlap]: False",
	"[ssupi7bu3rrhdpg2jyegzncu3kg3nnhklyliqvutaxgs7y7k3dx] inductor_config[reorder_for_compute_comm_overlap_passes]: ['reorder_compute_for_overlap', 'sink_waits', 'raise_comms']",
	"[cev5uo2jlwdhw2uyzcm7vr6cl23azjfw437f5r5lskm7spucos6] inductor_config[reorder_for_locality]: True",
	"[h25wqx6vliw4j5rtzzbv6latydxyei3deyg6v7wzvnzryfktuki] inductor_config[rocm.arch]: []",
	"[tquy2we2efmowuj4wuqzcfcfdcrkzkzmwdae6hprj7fa64jpusq] inductor_config[rocm.ck_dir]: None",
	"[oartxnko2l7d67tzwwm2otcumaut3n4wwcfgz3o377hmcveu5ft] inductor_config[rocm.ck_supported_arch]: ['gfx90a', 'gfx940', 'gfx941', 'gfx942']",
	"[klfqjprnpfhcdurgvuikvc4rpd5ynkpk77toousr5h3u5roty6p] inductor_config[rocm.compile_opt_level]: -O2",
	"[cev5uo2jlwdhw2uyzcm7vr6cl23azjfw437f5r5lskm7spucos6] inductor_config[rocm.flush_denormals]: True",
	"[esstihe2nyydk4mhzpvox3qkajyu5y5t23hk3fi2me7jn75xi3o] inductor_config[rocm.is_debug]: False",
	"[tquy2we2efmowuj4wuqzcfcfdcrkzkzmwdae6hprj7fa64jpusq] inductor_config[rocm.n_max_profiling_configs]: None",
	"[esstihe2nyydk4mhzpvox3qkajyu5y5t23hk3fi2me7jn75xi3o] inductor_config[rocm.print_kernel_resource_usage]: False",
	"[tquy2we2efmowuj4wuqzcfcfdcrkzkzmwdae6hprj7fa64jpusq] inductor_config[rocm.rocm_home]: None",
	"[esstihe2nyydk4mhzpvox3qkajyu5y5t23hk3fi2me7jn75xi3o] inductor_config[rocm.save_temps]: False",
	"[cev5uo2jlwdhw2uyzcm7vr6cl23azjfw437f5r5lskm7spucos6] inductor_config[rocm.use_fast_math]: True",
	"[esstihe2nyydk4mhzpvox3qkajyu5y5t23hk3fi2me7jn75xi3o] inductor_config[rocm.use_preselected_instances]: False",
	"[esstihe2nyydk4mhzpvox3qkajyu5y5t23hk3fi2me7jn75xi3o] inductor_config[save_args]: False",
	"[esstihe2nyydk4mhzpvox3qkajyu5y5t23hk3fi2me7jn75xi3o] inductor_config[search_autotune_cache]: False",
	"[cev5uo2jlwdhw2uyzcm7vr6cl23azjfw437f5r5lskm7spucos6] inductor_config[shape_padding]: True",
	"[cev5uo2jlwdhw2uyzcm7vr6cl23azjfw437f5r5lskm7spucos6] inductor_config[size_asserts]: True",
	"[tquy2we2efmowuj4wuqzcfcfdcrkzkzmwdae6hprj7fa64jpusq] inductor_config[sleep_sec_TESTING_ONLY]: None",
	"[cev5uo2jlwdhw2uyzcm7vr6cl23azjfw437f5r5lskm7spucos6] inductor_config[split_cat_fx_passes]: True",
	"[cev5uo2jlwdhw2uyzcm7vr6cl23azjfw437f5r5lskm7spucos6] inductor_config[split_reductions]: True",
	"[cev5uo2jlwdhw2uyzcm7vr6cl23azjfw437f5r5lskm7spucos6] inductor_config[static_weight_shapes]: True",
	"[esstihe2nyydk4mhzpvox3qkajyu5y5t23hk3fi2me7jn75xi3o] inductor_config[triton.autotune_at_compile_time]: False",
	"[cev5uo2jlwdhw2uyzcm7vr6cl23azjfw437f5r5lskm7spucos6] inductor_config[triton.autotune_cublasLt]: True",
	"[cev5uo2jlwdhw2uyzcm7vr6cl23azjfw437f5r5lskm7spucos6] inductor_config[triton.autotune_pointwise]: True",
	"[cev5uo2jlwdhw2uyzcm7vr6cl23azjfw437f5r5lskm7spucos6] inductor_config[triton.codegen_upcast_to_fp32]: True",
	"[tuax46wac7rfv2trf5gcps6vleo3cq44lbnrdxtprvo3ljjaddj] inductor_config[triton.cudagraph_dynamic_shape_warn_limit]: 50",
	"[esstihe2nyydk4mhzpvox3qkajyu5y5t23hk3fi2me7jn75xi3o] inductor_config[triton.cudagraph_skip_dynamic_graphs]: False",
	"[cev5uo2jlwdhw2uyzcm7vr6cl23azjfw437f5r5lskm7spucos6] inductor_config[triton.cudagraph_support_input_mutation]: True",
	"[cev5uo2jlwdhw2uyzcm7vr6cl23azjfw437f5r5lskm7spucos6] inductor_config[triton.cudagraph_trees]: True",
	"[esstihe2nyydk4mhzpvox3qkajyu5y5t23hk3fi2me7jn75xi3o] inductor_config[triton.cudagraph_trees_history_recording]: False",
	"[ljdqgtysl3vdf7j6attlz5gmjg2ncihnveojfyubosplmkrjgra] inductor_config[triton.cudagraph_unexpected_rerecord_limit]: 128",
	"[esstihe2nyydk4mhzpvox3qkajyu5y5t23hk3fi2me7jn75xi3o] inductor_config[triton.cudagraphs]: False",
	"[esstihe2nyydk4mhzpvox3qkajyu5y5t23hk3fi2me7jn75xi3o] inductor_config[triton.debug_sync_graph]: False",
	"[esstihe2nyydk4mhzpvox3qkajyu5y5t23hk3fi2me7jn75xi3o] inductor_config[triton.debug_sync_kernel]: False",
	"[esstihe2nyydk4mhzpvox3qkajyu5y5t23hk3fi2me7jn75xi3o] inductor_config[triton.dense_indexing]: False",
	"[yrty22bseefglnysuoec4ji7j2rnaggdj3g33zzj7avogwfmgdw] inductor_config[triton.descriptive_names]: original_aten",
	"[cev5uo2jlwdhw2uyzcm7vr6cl23azjfw437f5r5lskm7spucos6] inductor_config[triton.divisible_by_16]: True",
	"[esstihe2nyydk4mhzpvox3qkajyu5y5t23hk3fi2me7jn75xi3o] inductor_config[triton.fast_path_cudagraph_asserts]: False",
	"[esstihe2nyydk4mhzpvox3qkajyu5y5t23hk3fi2me7jn75xi3o] inductor_config[triton.force_cudagraph_sync]: False",
	"[esstihe2nyydk4mhzpvox3qkajyu5y5t23hk3fi2me7jn75xi3o] inductor_config[triton.force_cudagraphs_warmup]: False",
	"[tquy2we2efmowuj4wuqzcfcfdcrkzkzmwdae6hprj7fa64jpusq] inductor_config[triton.inject_relu_bug_TESTING_ONLY]: None",
	"[pr5nr4a7dthirgd2ljo3d2xakc63ywxugusu6mkmr6gmpeliyib] inductor_config[triton.max_tiles]: 2",
	"[fv6slhtedtydps5s5u2etitscliblzcidyitqf7krsv4e23fzk6] inductor_config[triton.min_split_scan_rblock]: 256",
	"[vrl5ktomgtzox5xucd3np6vug3vyj6hwwzahqijuwpmamlv7ohi] inductor_config[triton.multi_kernel]: 0",
	"[cev5uo2jlwdhw2uyzcm7vr6cl23azjfw437f5r5lskm7spucos6] inductor_config[triton.persistent_reductions]: True",
	"[esstihe2nyydk4mhzpvox3qkajyu5y5t23hk3fi2me7jn75xi3o] inductor_config[triton.prefer_nd_tiling]: False",
	"[esstihe2nyydk4mhzpvox3qkajyu5y5t23hk3fi2me7jn75xi3o] inductor_config[triton.skip_cudagraph_warmup]: False",
	"[cev5uo2jlwdhw2uyzcm7vr6cl23azjfw437f5r5lskm7spucos6] inductor_config[triton.slow_path_cudagraph_asserts]: True",
	"[ebt2ncs4f5y7dn7btzi76mnouepvzad474tmp5iju4wiuumjl4s] inductor_config[triton.spill_threshold]: 16",
	"[esstihe2nyydk4mhzpvox3qkajyu5y5t23hk3fi2me7jn75xi3o] inductor_config[triton.store_cubin]: False",
	"[cev5uo2jlwdhw2uyzcm7vr6cl23azjfw437f5r5lskm7spucos6] inductor_config[triton.tiling_prevents_pointwise_fusion]: True",
	"[cev5uo2jlwdhw2uyzcm7vr6cl23azjfw437f5r5lskm7spucos6] inductor_config[triton.tiling_prevents_reduction_fusion]: True",
	"[esstihe2nyydk4mhzpvox3qkajyu5y5t23hk3fi2me7jn75xi3o] inductor_config[triton.unique_kernel_names]: False",
	"[esstihe2nyydk4mhzpvox3qkajyu5y5t23hk3fi2me7jn75xi3o] inductor_config[triton.use_block_ptr]: False",
	"[wft6ljqsfr3x4m7fa5zuyb7cwknky4irrxz4bjr6uzr2yiopxqj] inductor_config[unbacked_symint_fallback]: 8192",
	"[yttmfmxblgcbsvbokguzowcorrcxz5uunxtcvsbe6nijgcx45he] inductor_config[unroll_reductions_threshold]: 8",
	"[esstihe2nyydk4mhzpvox3qkajyu5y5t23hk3fi2me7jn75xi3o] inductor_config[unsafe_ignore_unsupported_triton_autotune_args]: False",
	"[esstihe2nyydk4mhzpvox3qkajyu5y5t23hk3fi2me7jn75xi3o] inductor_config[use_minimal_arrayref_interface]: False",
	"[cev5uo2jlwdhw2uyzcm7vr6cl23azjfw437f5r5lskm7spucos6] inductor_config[use_mixed_mm]: True",
	"[esstihe2nyydk4mhzpvox3qkajyu5y5t23hk3fi2me7jn75xi3o] inductor_config[verbose_progress]: False",
	"[esstihe2nyydk4mhzpvox3qkajyu5y5t23hk3fi2me7jn75xi3o] inductor_config[warn_mix_layout]: False",
	"[hofygoznqmna6yvgsc6itdddi4hxftssgegh6wquixg2yng3a3z] inductor_config[worker_start_method]: subprocess"
	],
	"time_saved_ns": 12704991,
	"cache_state": "hit"
	},
	"ph": "i",
	"cat": "dynamo_timed",
	"tid": 0,
	"pid": 0,
	"s": "p"
	}
V0303 09:10:05.432040 12578 torch/_inductor/codecache.py:1379] {"artifact": {"name": "fx_graph_cache_hash", "encoding": "json"}, "frame_id": 14, "frame_compile_id": 1, "attempt": 0, "has_payload": "9f8ee090242f16515c235e512e1e5509"}
	{"key": "fa7guolcok7dbcnd6oek6diuyfqkwptdefovoput53fu3eimg5cq", "components": ["[mf63g6esyiimasnn73t5mwljxc36iynhqn35vbkuk7kjf3dwsrt] gm: <lambda>()\n\n\n\ndef forward(self, arg0_1, arg1_1):\n    floordiv = arg0_1 // 256;  arg0_1 = None\n    view = torch.ops.aten.view.default(arg1_1, [256, floordiv]);  arg1_1 = floordiv = None\n    return (view,)\n    \n# To see more debug info, please use `graph_module.print_readable()`", "[u24tscj53t2munm2n4d6s3uftdqr65er4geui7trbayjlc3je4q] example_inputs[0]: ('s0',)", "[2i3kxpp2jveltceczzk4ahtnitw4ob2qyb4s2pv4mi4se236u5z] example_inputs[1]: TensorMetadata(dtype=torch.float32, shape=torch.Size([s0]), stride=(1,), device=device(type='cuda', index=0), layout=torch.strided, memory_format=None, storage_offset=0, storage_bytes=None, requires_grad=False, is_quantized=False, is_conj=False, is_neg=False, is_inference=False, is_sparse=False, is_coalesced=None, dense_dim=None, sparse_dim=None)", "[esstihe2nyydk4mhzpvox3qkajyu5y5t23hk3fi2me7jn75xi3o] fx_kwargs[aot_mode]: False", "[esstihe2nyydk4mhzpvox3qkajyu5y5t23hk3fi2me7jn75xi3o] fx_kwargs[cpp_wrapper]: False", "[xq2hdkbfkbcuye6rgtypayrkhqf4cntij2dsd24rei3lsknakkf] fx_kwargs[cudagraphs]: BoxedBool(value=False)", "[tquy2we2efmowuj4wuqzcfcfdcrkzkzmwdae6hprj7fa64jpusq] fx_kwargs[extern_node_serializer]: None", "[esstihe2nyydk4mhzpvox3qkajyu5y5t23hk3fi2me7jn75xi3o] fx_kwargs[is_backward]: False", "[cev5uo2jlwdhw2uyzcm7vr6cl23azjfw437f5r5lskm7spucos6] fx_kwargs[is_inference]: True", "[tquy2we2efmowuj4wuqzcfcfdcrkzkzmwdae6hprj7fa64jpusq] fx_kwargs[layout_opt]: None", "[h25wqx6vliw4j5rtzzbv6latydxyei3deyg6v7wzvnzryfktuki] fx_kwargs[static_input_idxs]: []", "[shairiav2uczfvaju735p26onlcujumrymj663kroiuyzs6i55u] fx_kwargs[user_visible_outputs]: {'view': None}", "[aghvyrrgwvxijco2pk5wzc3cgmmthrbmgxitiibxuuscxdwrjd3] inputs_to_check[0]: 1", "[du4vyrfyozrfxcf6kk6ma7oqwatapifazeelfsawmsiu6gjdtxp] deterministic_algorithms_settings: (False, False, True)", "[7as26aeta7rzhgm2mxh4el36kupf55fr27327kzc2fsdiy3nexy] cuda_matmul_settings: (True, True, True)", "[xwojfm2wgtzvv6osq2suz26ozpu7itordb6qnfesrcd6rhlb5jc] torch_version: <bytes>", "[us57dzw33utjij5kbyy6wyd2by7wknkpqqzhfk4aav6qz5t74bl] system_info[device]: {'name': 'NVIDIA L4'}", "[kkjugxdvgihrm5q2qsprwyxsgxutzunecpz57gaifglfjwiz2nr] system_info[version]: {'triton': '3.1.0dc767c8fadcf23ea82d79e257c37d44077eae7f681cf967565fd43e9c017937b-835d4fc33500e1accafc5c5e00f4f73d87432c114860c04b68849bf6f942b8e5-dc767c8fadcf23ea82d79e257c37d44077eae7f681cf967565fd43e9c017937b-23d635e690d670bf61798e1259674b78c0ed5ba222ab6a455f329f27a758fc2d-e3b0c44298fc1c149afbf4c8996fb92427ae41e4649b934ca495991b7852b855-20b017e9c4d858ab05e783f77df50b86c6d6eee5d79f3f4b158562b4a54f8443-f44338a31e0534290b08653050804c3fabbde403a6d3004ae04f0c28495f0802-e3b0c44298fc1c149afbf4c8996fb92427ae41e4649b934ca495991b7852b855-a979896b9c0acfd41dd953b90bdc4b10968f7c0b45a286eae3f829aaddb2bb55-da771298f7bc45d24a61f35ef51742304421df1ab49d50bf1fc510dd5a46ea4b-357ddbf0295262789c6e9d4dedcc296082a0374db4d46e4bfd9e033c0eebfefb-71330f394e584b0df29595d49f6ac8ac0c5503db9147090dc58ad888cebac7be-f24adfd52383f7866791ebaa5d45a5d2cc826e56ee2fd285f438e85d201fe643-a34be0d3ae4b3ac9aede195cfda42f8a0a097b2bc9642fb59673ce6b3b607f10-36130a37af1b19a0dec569aa08d30b00c74c8f02b6b632999d86dea169146792-36d42f0429aae027cb985b53b9abc616fae4dad9e0ea03953e1e9fb46d0fb9a0-e5d2cb724c08d0ef4130f3ba858d22cf21f834bfd970a5388aa6ad2a6bab91f9', 'cuda': '12.4'}", "[lx5lhxotgs6siijuq2slk6w4phtynlj37dhglrk4es64ctg6r4h] system_info[hash]: 6fcc6fdc24b0f3f99e8a929624734d67627e680b3fb39d1060ab79bebd873583", "[esstihe2nyydk4mhzpvox3qkajyu5y5t23hk3fi2me7jn75xi3o] inductor_config[TYPE_CHECKING]: False", "[esstihe2nyydk4mhzpvox3qkajyu5y5t23hk3fi2me7jn75xi3o] inductor_config[abi_compatible]: False", "[esstihe2nyydk4mhzpvox3qkajyu5y5t23hk3fi2me7jn75xi3o] inductor_config[aggressive_fusion]: False", "[cev5uo2jlwdhw2uyzcm7vr6cl23azjfw437f5r5lskm7spucos6] inductor_config[allow_buffer_reuse]: True", "[esstihe2nyydk4mhzpvox3qkajyu5y5t23hk3fi2me7jn75xi3o] inductor_config[allow_stack_allocation]: False", "[esstihe2nyydk4mhzpvox3qkajyu5y5t23hk3fi2me7jn75xi3o] inductor_config[always_keep_tensor_constants]: False", "[esstihe2nyydk4mhzpvox3qkajyu5y5t23hk3fi2me7jn75xi3o] inductor_config[aot_inductor.debug_compile]: False", "[esstihe2nyydk4mhzpvox3qkajyu5y5t23hk3fi2me7jn75xi3o] inductor_config[aot_inductor.debug_dump_consts_bin]: False", "[ngkkx5e6z7erl6da23zb2cmsctz4yvaqyameyg5hbqln4wrhh7x] inductor_config[aot_inductor.debug_intermediate_value_printer]: 0", "[tquy2we2efmowuj4wuqzcfcfdcrkzkzmwdae6hprj7fa64jpusq] inductor_config[aot_inductor.filtered_kernel_names]: None", "[esstihe2nyydk4mhzpvox3qkajyu5y5t23hk3fi2me7jn75xi3o] inductor_config[aot_inductor.force_mmap_weights]: False", "[v3hzzlv4tjgvp3pyhmzagjd25orl6n7nynoa7svlhhwk73b7u3c] inductor_config[aot_inductor.output_path]: ", "[esstihe2nyydk4mhzpvox3qkajyu5y5t23hk3fi2me7jn75xi3o] inductor_config[aot_inductor.package]: False", "[v3hzzlv4tjgvp3pyhmzagjd25orl6n7nynoa7svlhhwk73b7u3c] inductor_config[aot_inductor.serialized_in_spec]: ", "[v3hzzlv4tjgvp3pyhmzagjd25orl6n7nynoa7svlhhwk73b7u3c] inductor_config[aot_inductor.serialized_out_spec]: ", "[esstihe2nyydk4mhzpvox3qkajyu5y5t23hk3fi2me7jn75xi3o] inductor_config[aot_inductor.use_runtime_constant_folding]: False", "[cev5uo2jlwdhw2uyzcm7vr6cl23azjfw437f5r5lskm7spucos6] inductor_config[assert_indirect_indexing]: True", "[esstihe2nyydk4mhzpvox3qkajyu5y5t23hk3fi2me7jn75xi3o] inductor_config[assume_aligned_inputs]: False", "[v3hzzlv4tjgvp3pyhmzagjd25orl6n7nynoa7svlhhwk73b7u3c] inductor_config[autoheuristic_collect]: ", "[jvchmi66fvqzlemhr5fcqorz5trfdtdalzfagtj2aolmimwqhdq] inductor_config[autoheuristic_log_path]: DEFAULT", "[jwbrgxes7vjqumngs5hyj6gn5nytv2whnppnzngvaagfmawhkkd] inductor_config[autoheuristic_use]: mixed_mm", "[cev5uo2jlwdhw2uyzcm7vr6cl23azjfw437f5r5lskm7spucos6] inductor_config[autotune_fallback_to_aten]: True", "[esstihe2nyydk4mhzpvox3qkajyu5y5t23hk3fi2me7jn75xi3o] inductor_config[autotune_in_subproc]: False", "[cev5uo2jlwdhw2uyzcm7vr6cl23azjfw437f5r5lskm7spucos6] inductor_config[autotune_local_cache]: True", "[esstihe2nyydk4mhzpvox3qkajyu5y5t23hk3fi2me7jn75xi3o] inductor_config[autotune_multi_device]: False", "[tquy2we2efmowuj4wuqzcfcfdcrkzkzmwdae6hprj7fa64jpusq] inductor_config[autotune_remote_cache]: None", "[esstihe2nyydk4mhzpvox3qkajyu5y5t23hk3fi2me7jn75xi3o] inductor_config[b2b_gemm_pass]: False", "[cev5uo2jlwdhw2uyzcm7vr6cl23azjfw437f5r5lskm7spucos6] inductor_config[batch_fusion]: True", "[esstihe2nyydk4mhzpvox3qkajyu5y5t23hk3fi2me7jn75xi3o] inductor_config[benchmark_combo_kernel]: False", "[cev5uo2jlwdhw2uyzcm7vr6cl23azjfw437f5r5lskm7spucos6] inductor_config[benchmark_epilogue_fusion]: True", "[esstihe2nyydk4mhzpvox3qkajyu5y5t23hk3fi2me7jn75xi3o] inductor_config[benchmark_fusion]: False", "[cev5uo2jlwdhw2uyzcm7vr6cl23azjfw437f5r5lskm7spucos6] inductor_config[benchmark_harness]: True", "[esstihe2nyydk4mhzpvox3qkajyu5y5t23hk3fi2me7jn75xi3o] inductor_config[benchmark_kernel]: False", "[cev5uo2jlwdhw2uyzcm7vr6cl23azjfw437f5r5lskm7spucos6] inductor_config[bw_outputs_user_visible]: True", "[b4ha3ravs3qv237q65hpfqegbnoww7tf2ahcbu2i7xo6te5spqs] inductor_config[c_shim_version]: 2", "[esstihe2nyydk4mhzpvox3qkajyu5y5t23hk3fi2me7jn75xi3o] inductor_config[check_stack_no_cycles_TESTING_ONLY]: False", "[aghvyrrgwvxijco2pk5wzc3cgmmthrbmgxitiibxuuscxdwrjd3] inductor_config[combo_kernel_allow_mixed_sizes]: 1", "[esstihe2nyydk4mhzpvox3qkajyu5y5t23hk3fi2me7jn75xi3o] inductor_config[combo_kernel_foreach_dynamic_shapes]: False", "[esstihe2nyydk4mhzpvox3qkajyu5y5t23hk3fi2me7jn75xi3o] inductor_config[combo_kernels]: False", "[aghvyrrgwvxijco2pk5wzc3cgmmthrbmgxitiibxuuscxdwrjd3] inductor_config[combo_kernels_autotune]: 1", "[esstihe2nyydk4mhzpvox3qkajyu5y5t23hk3fi2me7jn75xi3o] inductor_config[comment_origin]: False", "[cev5uo2jlwdhw2uyzcm7vr6cl23azjfw437f5r5lskm7spucos6] inductor_config[comprehensive_padding]: True", "[esstihe2nyydk4mhzpvox3qkajyu5y5t23hk3fi2me7jn75xi3o] inductor_config[compute_all_bounds]: False", "[cev5uo2jlwdhw2uyzcm7vr6cl23azjfw437f5r5lskm7spucos6] inductor_config[constant_and_index_propagation]: True", "[esstihe2nyydk4mhzpvox3qkajyu5y5t23hk3fi2me7jn75xi3o] inductor_config[conv_1x1_as_mm]: False", "[esstihe2nyydk4mhzpvox3qkajyu5y5t23hk3fi2me7jn75xi3o] inductor_config[coordinate_descent_check_all_directions]: False", "[aghvyrrgwvxijco2pk5wzc3cgmmthrbmgxitiibxuuscxdwrjd3] inductor_config[coordinate_descent_search_radius]: 1", "[esstihe2nyydk4mhzpvox3qkajyu5y5t23hk3fi2me7jn75xi3o] inductor_config[coordinate_descent_tuning]: False", "[c7zj4qytmety6keurs3hsh5wn7foxp3dqx4kym2ucszzcb2ngrf] inductor_config[cpp.cxx]: (None, 'g++')", "[yrty22bseefglnysuoec4ji7j2rnaggdj3g33zzj7avogwfmgdw] inductor_config[cpp.descriptive_names]: original_aten", "[esstihe2nyydk4mhzpvox3qkajyu5y5t23hk3fi2me7jn75xi3o] inductor_config[cpp.dynamic_threads]: False", "[esstihe2nyydk4mhzpvox3qkajyu5y5t23hk3fi2me7jn75xi3o] inductor_config[cpp.enable_floating_point_contract_flag]: False", "[esstihe2nyydk4mhzpvox3qkajyu5y5t23hk3fi2me7jn75xi3o] inductor_config[cpp.enable_kernel_profile]: False", "[cev5uo2jlwdhw2uyzcm7vr6cl23azjfw437f5r5lskm7spucos6] inductor_config[cpp.enable_loop_tail_vec]: True", "[cev5uo2jlwdhw2uyzcm7vr6cl23azjfw437f5r5lskm7spucos6] inductor_config[cpp.enable_tiling_heuristics]: True", "[esstihe2nyydk4mhzpvox3qkajyu5y5t23hk3fi2me7jn75xi3o] inductor_config[cpp.enable_unsafe_math_opt_flag]: False", "[cev5uo2jlwdhw2uyzcm7vr6cl23azjfw437f5r5lskm7spucos6] inductor_config[cpp.fallback_scatter_reduce_sum]: True", "[tquy2we2efmowuj4wuqzcfcfdcrkzkzmwdae6hprj7fa64jpusq] inductor_config[cpp.gemm_cache_blocking]: None", "[aghvyrrgwvxijco2pk5wzc3cgmmthrbmgxitiibxuuscxdwrjd3] inductor_config[cpp.gemm_max_k_slices]: 1", "[tquy2we2efmowuj4wuqzcfcfdcrkzkzmwdae6hprj7fa64jpusq] inductor_config[cpp.gemm_thread_factors]: None", "[tquy2we2efmowuj4wuqzcfcfdcrkzkzmwdae6hprj7fa64jpusq] inductor_config[cpp.inject_log1p_bug_TESTING_ONLY]: None", "[tquy2we2efmowuj4wuqzcfcfdcrkzkzmwdae6hprj7fa64jpusq] inductor_config[cpp.inject_relu_bug_TESTING_ONLY]: None", "[ebt2ncs4f5y7dn7btzi76mnouepvzad474tmp5iju4wiuumjl4s] inductor_config[cpp.max_horizontal_fusion_size]: 16", "[g7rrnbg5yonzux3cfj5ovre5lob3ayda7qcfpxjvtwmiz4uicii] inductor_config[cpp.min_chunk_size]: 4096", "[cev5uo2jlwdhw2uyzcm7vr6cl23azjfw437f5r5lskm7spucos6] inductor_config[cpp.no_redundant_loops]: True", "[tquy2we2efmowuj4wuqzcfcfdcrkzkzmwdae6hprj7fa64jpusq] inductor_config[cpp.simdlen]: None", "[sz3im5ogc6asp7g4uqocnovype63tkdexzfrniv6hn2oank3biu] inductor_config[cpp.threads]: -1", "[tquy2we2efmowuj4wuqzcfcfdcrkzkzmwdae6hprj7fa64jpusq] inductor_config[cpp.vec_isa_ok]: None", "[cev5uo2jlwdhw2uyzcm7vr6cl23azjfw437f5r5lskm7spucos6] inductor_config[cpp.weight_prepack]: True", "[esstihe2nyydk4mhzpvox3qkajyu5y5t23hk3fi2me7jn75xi3o] inductor_config[cpp_wrapper]: False", "[bsvfcwwoczx2rlkdz2eta6doujsymyihmi46hhwk6clrrvwcb6m] inductor_config[cpu_backend]: cpp", "[tquy2we2efmowuj4wuqzcfcfdcrkzkzmwdae6hprj7fa64jpusq] inductor_config[cuda.arch]: None", "[tvyftmtdmezlejo2xllu7awzv4pzc4vm4fub4b3gpl5jptjkosi] inductor_config[cuda.compile_opt_level]: -O1", "[tquy2we2efmowuj4wuqzcfcfdcrkzkzmwdae6hprj7fa64jpusq] inductor_config[cuda.cuda_cxx]: None", "[aghvyrrgwvxijco2pk5wzc3cgmmthrbmgxitiibxuuscxdwrjd3] inductor_config[cuda.cutlass_backend_min_gemm_size]: 1", "[tquy2we2efmowuj4wuqzcfcfdcrkzkzmwdae6hprj7fa64jpusq] inductor_config[cuda.cutlass_max_profiling_configs]: None", "[tquy2we2efmowuj4wuqzcfcfdcrkzkzmwdae6hprj7fa64jpusq] inductor_config[cuda.cutlass_op_allowlist_regex]: None", "[lwkz5chtpji756gurqw4foijfi7zfgljtnn5nmnvdi2skpt4mgh] inductor_config[cuda.cutlass_op_denylist_regex]: pingpong", "[esstihe2nyydk4mhzpvox3qkajyu5y5t23hk3fi2me7jn75xi3o] inductor_config[cuda.enable_cuda_lto]: False", "[esstihe2nyydk4mhzpvox3qkajyu5y5t23hk3fi2me7jn75xi3o] inductor_config[cuda.enable_debug_info]: False", "[esstihe2nyydk4mhzpvox3qkajyu5y5t23hk3fi2me7jn75xi3o] inductor_config[cuda.enable_ptxas_info]: False", "[cev5uo2jlwdhw2uyzcm7vr6cl23azjfw437f5r5lskm7spucos6] inductor_config[cuda.generate_test_runner]: True", "[esstihe2nyydk4mhzpvox3qkajyu5y5t23hk3fi2me7jn75xi3o] inductor_config[cuda.use_fast_math]: False", "[tquy2we2efmowuj4wuqzcfcfdcrkzkzmwdae6hprj7fa64jpusq] inductor_config[cuda.version]: None", "[caw4ly2z672k6kjfahoxwpajp5idhhtrpgf3ma2clylcp7c7aid] inductor_config[cuda_backend]: triton", "[vzzema5ityqj2wepdmkulue7q5pcevdr5h27oxxutf35d4tjume] inductor_config[custom_op_default_layout_constraint]: flexible_layout", "[esstihe2nyydk4mhzpvox3qkajyu5y5t23hk3fi2me7jn75xi3o] inductor_config[dce]: False", "[esstihe2nyydk4mhzpvox3qkajyu5y5t23hk3fi2me7jn75xi3o] inductor_config[debug]: False", "[esstihe2nyydk4mhzpvox3qkajyu5y5t23hk3fi2me7jn75xi3o] inductor_config[debug_fusion]: False", "[esstihe2nyydk4mhzpvox3qkajyu5y5t23hk3fi2me7jn75xi3o] inductor_config[debug_index_asserts]: False", "[esstihe2nyydk4mhzpvox3qkajyu5y5t23hk3fi2me7jn75xi3o] inductor_config[debug_ir_traceback]: False", "[esstihe2nyydk4mhzpvox3qkajyu5y5t23hk3fi2me7jn75xi3o] inductor_config[decompose_mem_bound_mm]: False", "[esstihe2nyydk4mhzpvox3qkajyu5y5t23hk3fi2me7jn75xi3o] inductor_config[developer_warnings]: False", "[esstihe2nyydk4mhzpvox3qkajyu5y5t23hk3fi2me7jn75xi3o] inductor_config[disable_cpp_codegen]: False", "[cev5uo2jlwdhw2uyzcm7vr6cl23azjfw437f5r5lskm7spucos6] inductor_config[disable_padding_cpu]: True", "[cev5uo2jlwdhw2uyzcm7vr6cl23azjfw437f5r5lskm7spucos6] inductor_config[disable_progress]: True", "[cev5uo2jlwdhw2uyzcm7vr6cl23azjfw437f5r5lskm7spucos6] inductor_config[dynamic_scale_rblock]: True", "[esstihe2nyydk4mhzpvox3qkajyu5y5t23hk3fi2me7jn75xi3o] inductor_config[efficient_conv_bn_eval_fx_passes]: False", "[esstihe2nyydk4mhzpvox3qkajyu5y5t23hk3fi2me7jn75xi3o] inductor_config[emulate_precision_casts]: False", "[esstihe2nyydk4mhzpvox3qkajyu5y5t23hk3fi2me7jn75xi3o] inductor_config[enable_auto_functionalized_v2]: False", "[v3hzzlv4tjgvp3pyhmzagjd25orl6n7nynoa7svlhhwk73b7u3c] inductor_config[enabled_metric_tables]: ", "[cev5uo2jlwdhw2uyzcm7vr6cl23azjfw437f5r5lskm7spucos6] inductor_config[epilogue_fusion]: True", "[esstihe2nyydk4mhzpvox3qkajyu5y5t23hk3fi2me7jn75xi3o] inductor_config[epilogue_fusion_first]: False", "[lxxtoqhcoepwfokeiibd575gnxo3uzwiv4hmpomlwkpzqz3qzsh] inductor_config[estimate_op_runtime]: default", "[esstihe2nyydk4mhzpvox3qkajyu5y5t23hk3fi2me7jn75xi3o] inductor_config[fallback_random]: False", "[esstihe2nyydk4mhzpvox3qkajyu5y5t23hk3fi2me7jn75xi3o] inductor_config[force_disable_caches]: False", "[esstihe2nyydk4mhzpvox3qkajyu5y5t23hk3fi2me7jn75xi3o] inductor_config[force_fuse_int_mm_with_mul]: False", "[esstihe2nyydk4mhzpvox3qkajyu5y5t23hk3fi2me7jn75xi3o] inductor_config[force_layout_optimization]: False", "[esstihe2nyydk4mhzpvox3qkajyu5y5t23hk3fi2me7jn75xi3o] inductor_config[force_same_precision]: False", "[esstihe2nyydk4mhzpvox3qkajyu5y5t23hk3fi2me7jn75xi3o] inductor_config[force_shape_pad]: False", "[esstihe2nyydk4mhzpvox3qkajyu5y5t23hk3fi2me7jn75xi3o] inductor_config[freezing]: False", "[esstihe2nyydk4mhzpvox3qkajyu5y5t23hk3fi2me7jn75xi3o] inductor_config[freezing_discard_parameters]: False", "[cev5uo2jlwdhw2uyzcm7vr6cl23azjfw437f5r5lskm7spucos6] inductor_config[fx_graph_cache]: True", "[tquy2we2efmowuj4wuqzcfcfdcrkzkzmwdae6hprj7fa64jpusq] inductor_config[fx_graph_remote_cache]: None", "[zwmmbkdkarexuhbigurz5lfnhx64tht7fznecjkrvznh6rzivbv] inductor_config[fx_passes_numeric_check]: {'pre_grad': False, 'precision': 0.0001, 'num_iterations': 1, 'requires_optimizer': True}", "[esstihe2nyydk4mhzpvox3qkajyu5y5t23hk3fi2me7jn75xi3o] inductor_config[generate_intermediate_hooks]: False", "[tquy2we2efmowuj4wuqzcfcfdcrkzkzmwdae6hprj7fa64jpusq] inductor_config[global_cache_dir]: None", "[esstihe2nyydk4mhzpvox3qkajyu5y5t23hk3fi2me7jn75xi3o] inductor_config[group_fusion]: False", "[esstihe2nyydk4mhzpvox3qkajyu5y5t23hk3fi2me7jn75xi3o] inductor_config[halide.asserts]: False", "[ljhgflgihidopsfsdcbqynv27nceykby3nutyd5jlcpq7n6e7l4] inductor_config[halide.cpu_target]: host", "[esstihe2nyydk4mhzpvox3qkajyu5y5t23hk3fi2me7jn75xi3o] inductor_config[halide.debug]: False", "[wx7vmsmrdpk5ue2txlywp3lj3faqmdjphs5fgg2ehzsyno7uovg] inductor_config[halide.gpu_target]: host-cuda", "[esstihe2nyydk4mhzpvox3qkajyu5y5t23hk3fi2me7jn75xi3o] inductor_config[halide.scan_kernels]: False", "[k5ogk6345jvklsnu7g2njqstiz2g6pm5wmqpgg3kasrmuqwjvl6] inductor_config[halide.scheduler_cpu]: Adams2019", "[svgytlua5wcyeia7wq7e6zgh5tsueikrnzchmdmouvmkpfsc2zq] inductor_config[halide.scheduler_cuda]: Anderson2021", "[cev5uo2jlwdhw2uyzcm7vr6cl23azjfw437f5r5lskm7spucos6] inductor_config[implicit_fallbacks]: True", "[cev5uo2jlwdhw2uyzcm7vr6cl23azjfw437f5r5lskm7spucos6] inductor_config[inplace_buffers]: True", "[5fxczt3ciyxitdhizb7sfsgn7fhpczcqsngttnt5ot2wyctk7co] inductor_config[inter_node_bw]: 25", "[yezuzjtg4h3jjur4jwtwiehbyixa7eonq4tqsqmwqve2lvvmrem] inductor_config[intra_node_bw]: 300", "[esstihe2nyydk4mhzpvox3qkajyu5y5t23hk3fi2me7jn75xi3o] inductor_config[is_nightly_or_source]: False", "[esstihe2nyydk4mhzpvox3qkajyu5y5t23hk3fi2me7jn75xi3o] inductor_config[is_predispatch]: False", "[tquy2we2efmowuj4wuqzcfcfdcrkzkzmwdae6hprj7fa64jpusq] inductor_config[joint_custom_post_pass]: None", "[tquy2we2efmowuj4wuqzcfcfdcrkzkzmwdae6hprj7fa64jpusq] inductor_config[joint_custom_pre_pass]: None", "[cev5uo2jlwdhw2uyzcm7vr6cl23azjfw437f5r5lskm7spucos6] inductor_config[joint_graph_constant_folding]: True", "[cev5uo2jlwdhw2uyzcm7vr6cl23azjfw437f5r5lskm7spucos6] inductor_config[keep_output_stride]: True", "[j6c55jha5r2sdys2rwq7uqhtleea5dgjcye7nicfgft36v7xfvp] inductor_config[kernel_name_max_ops]: 10", "[4p2fdjlvxrcw7c7fvzm5huhtqxnro4kvkx56f7p5zyrxqkwooov] inductor_config[layout_opt_default]: 1", "[cev5uo2jlwdhw2uyzcm7vr6cl23azjfw437f5r5lskm7spucos6] inductor_config[layout_optimization]: True", "[esstihe2nyydk4mhzpvox3qkajyu5y5t23hk3fi2me7jn75xi3o] inductor_config[loop_ordering_after_fusion]: False", "[esstihe2nyydk4mhzpvox3qkajyu5y5t23hk3fi2me7jn75xi3o] inductor_config[max_autotune]: False", "[uqlsbif4zxd75vt522p52txyuguieipi2lwz5g5awt56lccqk7s] inductor_config[max_autotune_conv_backends]: ATEN,TRITON", "[esstihe2nyydk4mhzpvox3qkajyu5y5t23hk3fi2me7jn75xi3o] inductor_config[max_autotune_gemm]: False", "[2y7luesktjrque3nr7qtxnum2mkbeegzdrsvkm3rvdlhqboajhx] inductor_config[max_autotune_gemm_backends]: ATEN,TRITON,CPP", "[jvchmi66fvqzlemhr5fcqorz5trfdtdalzfagtj2aolmimwqhdq] inductor_config[max_autotune_gemm_search_space]: DEFAULT", "[esstihe2nyydk4mhzpvox3qkajyu5y5t23hk3fi2me7jn75xi3o] inductor_config[max_autotune_pointwise]: False", "[bh33ranllcgilhgmgr3qvygzxjm6isq5iexnfm3zx6fnr2zwlp2] inductor_config[max_autotune_subproc_graceful_timeout_seconds]: 1.0", "[iglov24t7x5ruci344aer2tm6nqshi4veuw4wxlssxtu46cx76m] inductor_config[max_autotune_subproc_result_timeout_seconds]: 60.0", "[pwoh5aypf4fxbntdvwt67rppxorqos6xr3w7qzeun6kblbfg2ga] inductor_config[max_autotune_subproc_terminate_timeout_seconds]: 2.0", "[aghvyrrgwvxijco2pk5wzc3cgmmthrbmgxitiibxuuscxdwrjd3] inductor_config[max_epilogue_benchmarked_choices]: 1", "[jykiys6ynafs3zdylwa5ggq6j655mxeh42d6mtdi22gffkrmiac] inductor_config[max_fusion_size]: 64", "[yttmfmxblgcbsvbokguzowcorrcxz5uunxtcvsbe6nijgcx45he] inductor_config[max_pointwise_cat_inputs]: 8", "[esstihe2nyydk4mhzpvox3qkajyu5y5t23hk3fi2me7jn75xi3o] inductor_config[memory_planning]: False", "[x75won4jmsgeb63pcvwr2y4eteyzzdhmf5rv6xhjppie4hx2yu5] inductor_config[memory_pool]: intermediates", "[v2td5s4lnsvyxvaevy4chx6kc5h3mm2axazbgwimqule5zrzao7] inductor_config[mixed_mm_choice]: heuristic", "[esstihe2nyydk4mhzpvox3qkajyu5y5t23hk3fi2me7jn75xi3o] inductor_config[nan_asserts]: False", "[cev5uo2jlwdhw2uyzcm7vr6cl23azjfw437f5r5lskm7spucos6] inductor_config[optimize_scatter_upon_const_tensor]: True", "[esstihe2nyydk4mhzpvox3qkajyu5y5t23hk3fi2me7jn75xi3o] inductor_config[pad_channels_last]: False", "[esstihe2nyydk4mhzpvox3qkajyu5y5t23hk3fi2me7jn75xi3o] inductor_config[pad_outputs]: False", "[ljdqgtysl3vdf7j6attlz5gmjg2ncihnveojfyubosplmkrjgra] inductor_config[padding_alignment_bytes]: 128", "[dnnw5ks3yxrp7mwvihb2hh4tqx35ye637xt33x64kw4fvz2nyzg] inductor_config[padding_stride_threshold]: 1024", "[cev5uo2jlwdhw2uyzcm7vr6cl23azjfw437f5r5lskm7spucos6] inductor_config[pattern_matcher]: True", "[esstihe2nyydk4mhzpvox3qkajyu5y5t23hk3fi2me7jn75xi3o] inductor_config[permute_fusion]: False", "[cev5uo2jlwdhw2uyzcm7vr6cl23azjfw437f5r5lskm7spucos6] inductor_config[pick_loop_orders]: True", "[tquy2we2efmowuj4wuqzcfcfdcrkzkzmwdae6hprj7fa64jpusq] inductor_config[post_grad_custom_post_pass]: None", "[tquy2we2efmowuj4wuqzcfcfdcrkzkzmwdae6hprj7fa64jpusq] inductor_config[post_grad_custom_pre_pass]: None", "[4bryyl4ahh5whyg3zwqebpwmjnx6w77nqgqbdjlowju6lkqtn7w] inductor_config[post_grad_fusion_options]: {}", "[tquy2we2efmowuj4wuqzcfcfdcrkzkzmwdae6hprj7fa64jpusq] inductor_config[pre_grad_custom_pass]: None", "[gtkv35cxmtt6tr556buxi277a67g25mjojnv32dc4bjvc7bwscw] inductor_config[pre_grad_fusion_options]: {'batch_linear': {}, 'batch_linear_lhs': {}, 'batch_layernorm': {}, 'batch_tanh': {}, 'batch_relu': {}, 'batch_sigmoid': {}}", "[esstihe2nyydk4mhzpvox3qkajyu5y5t23hk3fi2me7jn75xi3o] inductor_config[profile_bandwidth]: False", "[tquy2we2efmowuj4wuqzcfcfdcrkzkzmwdae6hprj7fa64jpusq] inductor_config[profile_bandwidth_output]: None", "[v3hzzlv4tjgvp3pyhmzagjd25orl6n7nynoa7svlhhwk73b7u3c] inductor_config[profile_bandwidth_regex]: ", "[esstihe2nyydk4mhzpvox3qkajyu5y5t23hk3fi2me7jn75xi3o] inductor_config[profile_bandwidth_with_do_bench_using_profiling]: False", "[esstihe2nyydk4mhzpvox3qkajyu5y5t23hk3fi2me7jn75xi3o] inductor_config[profiler_mark_wrapper_call]: False", "[yttmfmxblgcbsvbokguzowcorrcxz5uunxtcvsbe6nijgcx45he] inductor_config[realize_acc_reads_threshold]: 8", "[rr5m5hsocoyodldz7vcvaizdwvm2rt34evmqdxvng7wz3tufvo6] inductor_config[realize_opcount_threshold]: 30", "[lkkae3meylaixfif4thncru4hjqeaislawjoghffrbwuscaagei] inductor_config[realize_reads_threshold]: 4", "[esstihe2nyydk4mhzpvox3qkajyu5y5t23hk3fi2me7jn75xi3o] inductor_config[reorder_for_compute_comm_overlap]: False", "[ssupi7bu3rrhdpg2jyegzncu3kg3nnhklyliqvutaxgs7y7k3dx] inductor_config[reorder_for_compute_comm_overlap_passes]: ['reorder_compute_for_overlap', 'sink_waits', 'raise_comms']", "[cev5uo2jlwdhw2uyzcm7vr6cl23azjfw437f5r5lskm7spucos6] inductor_config[reorder_for_locality]: True", "[h25wqx6vliw4j5rtzzbv6latydxyei3deyg6v7wzvnzryfktuki] inductor_config[rocm.arch]: []", "[tquy2we2efmowuj4wuqzcfcfdcrkzkzmwdae6hprj7fa64jpusq] inductor_config[rocm.ck_dir]: None", "[oartxnko2l7d67tzwwm2otcumaut3n4wwcfgz3o377hmcveu5ft] inductor_config[rocm.ck_supported_arch]: ['gfx90a', 'gfx940', 'gfx941', 'gfx942']", "[klfqjprnpfhcdurgvuikvc4rpd5ynkpk77toousr5h3u5roty6p] inductor_config[rocm.compile_opt_level]: -O2", "[cev5uo2jlwdhw2uyzcm7vr6cl23azjfw437f5r5lskm7spucos6] inductor_config[rocm.flush_denormals]: True", "[esstihe2nyydk4mhzpvox3qkajyu5y5t23hk3fi2me7jn75xi3o] inductor_config[rocm.is_debug]: False", "[tquy2we2efmowuj4wuqzcfcfdcrkzkzmwdae6hprj7fa64jpusq] inductor_config[rocm.n_max_profiling_configs]: None", "[esstihe2nyydk4mhzpvox3qkajyu5y5t23hk3fi2me7jn75xi3o] inductor_config[rocm.print_kernel_resource_usage]: False", "[tquy2we2efmowuj4wuqzcfcfdcrkzkzmwdae6hprj7fa64jpusq] inductor_config[rocm.rocm_home]: None", "[esstihe2nyydk4mhzpvox3qkajyu5y5t23hk3fi2me7jn75xi3o] inductor_config[rocm.save_temps]: False", "[cev5uo2jlwdhw2uyzcm7vr6cl23azjfw437f5r5lskm7spucos6] inductor_config[rocm.use_fast_math]: True", "[esstihe2nyydk4mhzpvox3qkajyu5y5t23hk3fi2me7jn75xi3o] inductor_config[rocm.use_preselected_instances]: False", "[esstihe2nyydk4mhzpvox3qkajyu5y5t23hk3fi2me7jn75xi3o] inductor_config[save_args]: False", "[esstihe2nyydk4mhzpvox3qkajyu5y5t23hk3fi2me7jn75xi3o] inductor_config[search_autotune_cache]: False", "[cev5uo2jlwdhw2uyzcm7vr6cl23azjfw437f5r5lskm7spucos6] inductor_config[shape_padding]: True", "[cev5uo2jlwdhw2uyzcm7vr6cl23azjfw437f5r5lskm7spucos6] inductor_config[size_asserts]: True", "[tquy2we2efmowuj4wuqzcfcfdcrkzkzmwdae6hprj7fa64jpusq] inductor_config[sleep_sec_TESTING_ONLY]: None", "[cev5uo2jlwdhw2uyzcm7vr6cl23azjfw437f5r5lskm7spucos6] inductor_config[split_cat_fx_passes]: True", "[cev5uo2jlwdhw2uyzcm7vr6cl23azjfw437f5r5lskm7spucos6] inductor_config[split_reductions]: True", "[cev5uo2jlwdhw2uyzcm7vr6cl23azjfw437f5r5lskm7spucos6] inductor_config[static_weight_shapes]: True", "[esstihe2nyydk4mhzpvox3qkajyu5y5t23hk3fi2me7jn75xi3o] inductor_config[triton.autotune_at_compile_time]: False", "[cev5uo2jlwdhw2uyzcm7vr6cl23azjfw437f5r5lskm7spucos6] inductor_config[triton.autotune_cublasLt]: True", "[cev5uo2jlwdhw2uyzcm7vr6cl23azjfw437f5r5lskm7spucos6] inductor_config[triton.autotune_pointwise]: True", "[cev5uo2jlwdhw2uyzcm7vr6cl23azjfw437f5r5lskm7spucos6] inductor_config[triton.codegen_upcast_to_fp32]: True", "[tuax46wac7rfv2trf5gcps6vleo3cq44lbnrdxtprvo3ljjaddj] inductor_config[triton.cudagraph_dynamic_shape_warn_limit]: 50", "[esstihe2nyydk4mhzpvox3qkajyu5y5t23hk3fi2me7jn75xi3o] inductor_config[triton.cudagraph_skip_dynamic_graphs]: False", "[cev5uo2jlwdhw2uyzcm7vr6cl23azjfw437f5r5lskm7spucos6] inductor_config[triton.cudagraph_support_input_mutation]: True", "[cev5uo2jlwdhw2uyzcm7vr6cl23azjfw437f5r5lskm7spucos6] inductor_config[triton.cudagraph_trees]: True", "[esstihe2nyydk4mhzpvox3qkajyu5y5t23hk3fi2me7jn75xi3o] inductor_config[triton.cudagraph_trees_history_recording]: False", "[ljdqgtysl3vdf7j6attlz5gmjg2ncihnveojfyubosplmkrjgra] inductor_config[triton.cudagraph_unexpected_rerecord_limit]: 128", "[esstihe2nyydk4mhzpvox3qkajyu5y5t23hk3fi2me7jn75xi3o] inductor_config[triton.cudagraphs]: False", "[esstihe2nyydk4mhzpvox3qkajyu5y5t23hk3fi2me7jn75xi3o] inductor_config[triton.debug_sync_graph]: False", "[esstihe2nyydk4mhzpvox3qkajyu5y5t23hk3fi2me7jn75xi3o] inductor_config[triton.debug_sync_kernel]: False", "[esstihe2nyydk4mhzpvox3qkajyu5y5t23hk3fi2me7jn75xi3o] inductor_config[triton.dense_indexing]: False", "[yrty22bseefglnysuoec4ji7j2rnaggdj3g33zzj7avogwfmgdw] inductor_config[triton.descriptive_names]: original_aten", "[cev5uo2jlwdhw2uyzcm7vr6cl23azjfw437f5r5lskm7spucos6] inductor_config[triton.divisible_by_16]: True", "[esstihe2nyydk4mhzpvox3qkajyu5y5t23hk3fi2me7jn75xi3o] inductor_config[triton.fast_path_cudagraph_asserts]: False", "[esstihe2nyydk4mhzpvox3qkajyu5y5t23hk3fi2me7jn75xi3o] inductor_config[triton.force_cudagraph_sync]: False", "[esstihe2nyydk4mhzpvox3qkajyu5y5t23hk3fi2me7jn75xi3o] inductor_config[triton.force_cudagraphs_warmup]: False", "[tquy2we2efmowuj4wuqzcfcfdcrkzkzmwdae6hprj7fa64jpusq] inductor_config[triton.inject_relu_bug_TESTING_ONLY]: None", "[pr5nr4a7dthirgd2ljo3d2xakc63ywxugusu6mkmr6gmpeliyib] inductor_config[triton.max_tiles]: 2", "[fv6slhtedtydps5s5u2etitscliblzcidyitqf7krsv4e23fzk6] inductor_config[triton.min_split_scan_rblock]: 256", "[vrl5ktomgtzox5xucd3np6vug3vyj6hwwzahqijuwpmamlv7ohi] inductor_config[triton.multi_kernel]: 0", "[cev5uo2jlwdhw2uyzcm7vr6cl23azjfw437f5r5lskm7spucos6] inductor_config[triton.persistent_reductions]: True", "[esstihe2nyydk4mhzpvox3qkajyu5y5t23hk3fi2me7jn75xi3o] inductor_config[triton.prefer_nd_tiling]: False", "[esstihe2nyydk4mhzpvox3qkajyu5y5t23hk3fi2me7jn75xi3o] inductor_config[triton.skip_cudagraph_warmup]: False", "[cev5uo2jlwdhw2uyzcm7vr6cl23azjfw437f5r5lskm7spucos6] inductor_config[triton.slow_path_cudagraph_asserts]: True", "[ebt2ncs4f5y7dn7btzi76mnouepvzad474tmp5iju4wiuumjl4s] inductor_config[triton.spill_threshold]: 16", "[esstihe2nyydk4mhzpvox3qkajyu5y5t23hk3fi2me7jn75xi3o] inductor_config[triton.store_cubin]: False", "[cev5uo2jlwdhw2uyzcm7vr6cl23azjfw437f5r5lskm7spucos6] inductor_config[triton.tiling_prevents_pointwise_fusion]: True", "[cev5uo2jlwdhw2uyzcm7vr6cl23azjfw437f5r5lskm7spucos6] inductor_config[triton.tiling_prevents_reduction_fusion]: True", "[esstihe2nyydk4mhzpvox3qkajyu5y5t23hk3fi2me7jn75xi3o] inductor_config[triton.unique_kernel_names]: False", "[esstihe2nyydk4mhzpvox3qkajyu5y5t23hk3fi2me7jn75xi3o] inductor_config[triton.use_block_ptr]: False", "[wft6ljqsfr3x4m7fa5zuyb7cwknky4irrxz4bjr6uzr2yiopxqj] inductor_config[unbacked_symint_fallback]: 8192", "[yttmfmxblgcbsvbokguzowcorrcxz5uunxtcvsbe6nijgcx45he] inductor_config[unroll_reductions_threshold]: 8", "[esstihe2nyydk4mhzpvox3qkajyu5y5t23hk3fi2me7jn75xi3o] inductor_config[unsafe_ignore_unsupported_triton_autotune_args]: False", "[esstihe2nyydk4mhzpvox3qkajyu5y5t23hk3fi2me7jn75xi3o] inductor_config[use_minimal_arrayref_interface]: False", "[cev5uo2jlwdhw2uyzcm7vr6cl23azjfw437f5r5lskm7spucos6] inductor_config[use_mixed_mm]: True", "[esstihe2nyydk4mhzpvox3qkajyu5y5t23hk3fi2me7jn75xi3o] inductor_config[verbose_progress]: False", "[esstihe2nyydk4mhzpvox3qkajyu5y5t23hk3fi2me7jn75xi3o] inductor_config[warn_mix_layout]: False", "[hofygoznqmna6yvgsc6itdddi4hxftssgegh6wquixg2yng3a3z] inductor_config[worker_start_method]: subprocess"], "time_saved_ns": 12704991, "cache_state": "hit"}
V0303 09:10:05.432403 12578 torch/_dynamo/utils.py:953] {"chromium_event": {}, "frame_id": 14, "frame_compile_id": 1, "attempt": 0, "has_payload": "c8a41fa9f5d5b83ce4af497a90812a28"}
	{
	"name": "inductor_compile",
	"ts": 1740993005432357.2,
	"args": {
	"cache_stats": {
	"fxgraph_cache_hit": 2,
	"fxgraph_cache_miss": 12,
	"fxgraph_cache_bypass": 0
	}
	},
	"ph": "E",
	"cat": "dynamo_timed",
	"tid": 0,
	"pid": 0
	}
V0303 09:10:05.432586 12578 torch/_dynamo/utils.py:953] {"chromium_event": {}, "frame_id": 14, "frame_compile_id": 1, "attempt": 0, "has_payload": "b825b40272df3cab4e4052997993ca55"}
	{
	"name": "compile_fx_inner",
	"ts": 1740993005432548.0,
	"args": {
	"cache_stats": {
	"fxgraph_cache_hit": 2,
	"fxgraph_cache_miss": 12,
	"fxgraph_cache_bypass": 0
	}
	},
	"ph": "E",
	"cat": "dynamo_timed",
	"tid": 0,
	"pid": 0
	}
V0303 09:10:05.432954 12578 torch/_dynamo/utils.py:953] {"chromium_event": {}, "frame_id": 14, "frame_compile_id": 1, "attempt": 0, "has_payload": "d4fbda0d4d687313c0d7fcfca2e4d8d6"}
	{
	"name": "compile_fx.<locals>.fw_compiler_base",
	"ts": 1740993005432909.0,
	"args": {
	"cache_stats": {
	"fxgraph_cache_hit": 2,
	"fxgraph_cache_miss": 12,
	"fxgraph_cache_bypass": 0
	}
	},
	"ph": "E",
	"cat": "dynamo_timed",
	"tid": 0,
	"pid": 0
	}
V0303 09:10:05.435123 12578 torch/_dynamo/utils.py:953] {"chromium_event": {}, "frame_id": 14, "frame_compile_id": 1, "attempt": 0, "has_payload": "3c26a734518dd54766b8f4099398a913"}
	{
	"name": "create_aot_dispatcher_function",
	"ts": 1740993005435074.2,
	"args": {
	"cache_stats": {
	"fxgraph_cache_hit": 2,
	"fxgraph_cache_miss": 12,
	"fxgraph_cache_bypass": 0
	}
	},
	"ph": "E",
	"cat": "dynamo_timed",
	"tid": 0,
	"pid": 0
	}
V0303 09:10:05.435421 12578 torch/_dynamo/utils.py:953] {"chromium_event": {}, "frame_id": 14, "frame_compile_id": 1, "attempt": 0, "has_payload": "31524cd3cf7acaa14b5552d483390c9b"}
	{
	"name": "backend_compile",
	"ts": 1740993005435377.2,
	"args": {
	"cache_stats": {
	"fxgraph_cache_hit": 2,
	"fxgraph_cache_miss": 12,
	"fxgraph_cache_bypass": 0
	}
	},
	"ph": "E",
	"cat": "dynamo_timed",
	"tid": 0,
	"pid": 0
	}
V0303 09:10:05.435603 12578 torch/_dynamo/utils.py:953] {"chromium_event": {}, "frame_id": 14, "frame_compile_id": 1, "attempt": 0, "has_payload": "bf94d62c1ef8484407b960f0c4774d6a"}
	{
	"name": "OutputGraph.call_user_compiler",
	"ts": 1740993005435564.2,
	"args": {
	"cache_stats": {
	"fxgraph_cache_hit": 2,
	"fxgraph_cache_miss": 12,
	"fxgraph_cache_bypass": 0
	}
	},
	"ph": "E",
	"cat": "dynamo_timed",
	"tid": 0,
	"pid": 0
	}
V0303 09:10:05.447175 12578 torch/_dynamo/guards.py:2277] {"dynamo_cpp_guards_str": {}, "frame_id": 14, "frame_compile_id": 1, "attempt": 0, "has_payload": "11f5fcd5fbe9cf3d980f23210624f707"}
	
	TREE_GUARD_MANAGER:
	+- RootGuardManager
	| +- DEFAULT_DEVICE: utils_device.CURRENT_DEVICE == None                           # _dynamo/output_graph.py:471 in init_ambient_guards
	| +- GLOBAL_STATE: ___check_global_state()
	| +- TORCH_FUNCTION_MODE_STACK: ___check_torch_function_mode_stack()
	| +- GuardManager: source=L['tensor'], accessed_by=DictGetItemGuardAccessor(tensor)
	| | +- TENSOR_MATCH: check_tensor(L['tensor'], Tensor, DispatchKeySet(CUDA, BackendSelect, ADInplaceOrView, AutogradCUDA), torch.float32, device=0, requires_grad=True, size=[None], stride=[1])
	| | +- NO_HASATTR: hasattr(L['tensor'], '_dynamo_dynamic_indices') == False    
	| +- GuardManager: source=L['pattern'], accessed_by=DictGetItemGuardAccessor(pattern)
	| | +- EQUALS_MATCH: L['pattern'] == '(b n) -> b n'                              
	| +- GuardManager: source=L['axes_lengths'], accessed_by=DictGetItemGuardAccessor(axes_lengths)
	| | +- DICT_LENGTH: len(L['axes_lengths']) == 1                                 
	| | +- GuardManager: source=L['axes_lengths']['b'], accessed_by=DictGetItemGuardAccessor(b)
	| | | +- EQUALS_MATCH: L['axes_lengths']['b'] == 256                               
	| +- GuardManager: source=G, accessed_by=GlobalsGuardAccessor
	| | +- GuardManager: source=G['reduce'], accessed_by=DictGetItemGuardAccessor(reduce)
	| | | +- ID_MATCH: ___check_obj_id(G['reduce'], 140438156473248)               
	+- LAMBDA_GUARD: Eq(L['tensor'].size()[0], 256*((L['tensor'].size()[0]//256)))  # _dynamo/output_graph.py:463 in init_ambient_guards
	+- LAMBDA_GUARD: Ne((L['tensor'].size()[0]//256), 1)                           # _dynamo/output_graph.py:463 in init_ambient_guards
	+- LAMBDA_GUARD: 256 <= L['tensor'].size()[0]                                  # _dynamo/output_graph.py:463 in init_ambient_guards
	
V0303 09:10:05.447451 12578 torch/_dynamo/utils.py:953] {"chromium_event": {}, "frame_id": 14, "frame_compile_id": 1, "attempt": 0, "has_payload": "0202ff0fec04b72ff7b61e2e25b599c6"}
	{
	"name": "entire_frame_compile",
	"ts": 1740993005447404.0,
	"args": {
	"cache_stats": {
	"fxgraph_cache_hit": 2,
	"fxgraph_cache_miss": 12,
	"fxgraph_cache_bypass": 0
	}
	},
	"ph": "E",
	"cat": "dynamo_timed",
	"tid": 0,
	"pid": 0
	}
V0303 09:10:05.447638 12578 torch/_dynamo/utils.py:953] {"chromium_event": {}, "frame_id": 14, "frame_compile_id": 1, "attempt": 0, "has_payload": "7030cd74add06f184be8931cd56d69f0"}
	{
	"name": "_compile.compile_inner",
	"ts": 1740993005447597.0,
	"args": {
	"cache_stats": {
	"fxgraph_cache_hit": 2,
	"fxgraph_cache_miss": 12,
	"fxgraph_cache_bypass": 0
	}
	},
	"ph": "E",
	"cat": "dynamo_timed",
	"tid": 0,
	"pid": 0
	}
V0303 09:10:05.447880 12578 torch/_dynamo/utils.py:810] {"compilation_metrics": {"compile_id": "14/1", "frame_key": "30", "co_name": "rearrange", "co_filename": "/home/ec2-user/.local/lib/python3.9/site-packages/einops/einops.py", "co_firstlineno": 536, "cache_size": 1, "accumulated_cache_size": 1, "guard_count": 11, "shape_env_guard_count": 6, "graph_op_count": 1, "graph_node_count": 4, "graph_input_count": 2, "start_time": 1740993005.391205, "entire_frame_compile_time_s": 0.056122779846191406, "backend_compile_time_s": 0.033019304275512695, "inductor_compile_time_s": 0.007496356964111328, "code_gen_time_s": null, "fail_type": null, "fail_reason": null, "fail_user_frame_filename": null, "fail_user_frame_lineno": null, "non_compliant_ops": [], "compliant_custom_ops": [], "restart_reasons": [], "dynamo_time_before_restart_s": 0.0, "has_guarded_code": true, "possibly_missed_reinplacing_opportunities": 0}, "frame_id": 14, "frame_compile_id": 1, "attempt": 0}
V0303 09:10:05.455028 12578 torch/_dynamo/utils.py:953] {"chromium_event": {}, "frame_id": 13, "frame_compile_id": 0, "attempt": 0, "has_payload": "a56f1a581e65c117b4a1b4c368994404"}
	{
	"name": "compile_fx.<locals>.bw_compiler",
	"ts": 1740993005454956.2,
	"args": null,
	"ph": "B",
	"cat": "dynamo_timed",
	"tid": 0,
	"pid": 0
	}
V0303 09:10:05.455365 12578 torch/_dynamo/utils.py:953] {"chromium_event": {}, "frame_id": 13, "frame_compile_id": 0, "attempt": 0, "has_payload": "bf2bddd5504d5ce74de65d6f04e81a37"}
	{
	"name": "compile_fx_inner",
	"ts": 1740993005455309.8,
	"args": null,
	"ph": "B",
	"cat": "dynamo_timed",
	"tid": 0,
	"pid": 0
	}
V0303 09:10:05.455548 12578 torch/_dynamo/utils.py:953] {"chromium_event": {}, "frame_id": 13, "frame_compile_id": 0, "attempt": 0, "has_payload": "39a97a35f523e56010791c69f0f96cfd"}
	{
	"name": "inductor_compile",
	"ts": 1740993005455309.8,
	"args": null,
	"ph": "B",
	"cat": "dynamo_timed",
	"tid": 0,
	"pid": 0
	}
V0303 09:10:05.456008 12578 torch/_dynamo/utils.py:953] {"chromium_event": {}, "frame_id": 13, "frame_compile_id": 0, "attempt": 0, "has_payload": "9312e12b7233c9af2431a2f0cab77e55"}
	{
	"name": "inductor_compile",
	"ts": 1740993005455965.0,
	"args": {
	"cache_stats": {
	"fxgraph_cache_hit": 2,
	"fxgraph_cache_miss": 12,
	"fxgraph_cache_bypass": 0
	}
	},
	"ph": "E",
	"cat": "dynamo_timed",
	"tid": 0,
	"pid": 0
	}
V0303 09:10:05.456206 12578 torch/_dynamo/utils.py:953] {"chromium_event": {}, "frame_id": 13, "frame_compile_id": 0, "attempt": 0, "has_payload": "cf7bfea13d69fd32e96bff4d494fd516"}
	{
	"name": "compile_fx_inner",
	"ts": 1740993005456167.2,
	"args": {
	"cache_stats": {
	"fxgraph_cache_hit": 2,
	"fxgraph_cache_miss": 12,
	"fxgraph_cache_bypass": 0
	}
	},
	"ph": "E",
	"cat": "dynamo_timed",
	"tid": 0,
	"pid": 0
	}
V0303 09:10:05.456384 12578 torch/_dynamo/utils.py:810] {"bwd_compilation_metrics": {"compile_id": "13/0", "inductor_compile_time_s": 0.0006103515625, "code_gen_time_s": null, "fail_type": null, "fail_reason": null}, "frame_id": 13, "frame_compile_id": 0, "attempt": 0}
V0303 09:10:05.456589 12578 torch/_dynamo/utils.py:953] {"chromium_event": {}, "frame_id": 13, "frame_compile_id": 0, "attempt": 0, "has_payload": "e53a1020590331c2cc24225590cf0563"}
	{
	"name": "compile_fx.<locals>.bw_compiler",
	"ts": 1740993005456547.8,
	"args": {
	"cache_stats": {
	"fxgraph_cache_hit": 2,
	"fxgraph_cache_miss": 12,
	"fxgraph_cache_bypass": 0
	}
	},
	"ph": "E",
	"cat": "dynamo_timed",
	"tid": 0,
	"pid": 0
	}
